…
 odict_keys(['img0005', 'img0006', 'img0007', 'img0009', 'img0010', 'img0021', 'img0023', 'img0024', 'img0026', 'img0027', 'img0028', 'img0030', 'img0031', 'img0033', 'img0034', 'img0037', 'img0039', 'img0040']) 
2025-12-04 21:16:22.225067: VALIDATION KEYS:
 odict_keys(['img0001', 'img0002', 'img0003', 'img0004', 'img0008', 'img0022', 'img0025', 'img0029', 'img0032', 'img0035', 'img0036', 'img0038']) 
2025-12-04 21:16:34.409339: lr: 0.01 
2025-12-04 21:16:38.606789: Unable to plot network architecture: 
2025-12-04 21:16:38.610341: No module named 'hiddenlayer' 
2025-12-04 21:16:38.610439: 
printing the network instead:
 
2025-12-04 21:16:38.610528: UNETR_PP(
  (unetr_pp_encoder): UnetrPPEncoder(
    (downsample_layers): ModuleList(
      (0): Sequential(
        (0): Convolution(
          (conv): Conv3d(1, 32, kernel_size=(2, 4, 4), stride=(2, 4, 4), bias=False)
        )
        (1): GroupNorm(1, 32, eps=1e-05, affine=True)
      )
      (1): Sequential(
        (0): Convolution(
          (conv): Conv3d(32, 64, kernel_size=(2, 2, 2), stride=(2, 2, 2), bias=False)
        )
        (1): GroupNorm(32, 64, eps=1e-05, affine=True)
      )
      (2): Sequential(
        (0): Convolution(
          (conv): Conv3d(64, 128, kernel_size=(2, 2, 2), stride=(2, 2, 2), bias=False)
        )
        (1): GroupNorm(64, 128, eps=1e-05, affine=True)
      )
      (3): Sequential(
        (0): Convolution(
          (conv): Conv3d(128, 256, kernel_size=(2, 2, 2), stride=(2, 2, 2), bias=False)
        )
        (1): GroupNorm(128, 256, eps=1e-05, affine=True)
      )
    )
    (stages): ModuleList(
      (0): Sequential(
        (0): TransformerBlock(
          (norm): LayerNorm((32,), eps=1e-05, elementwise_affine=True)
          (epa_block): EPA(
            (epa): LightCBAM(
              (simam_channel): simam_module(
                (activation): Sigmoid()
              )
              (ca_drop): Dropout(p=0.15, inplace=False)
              (simam_spatial): simam_spatial(
                (activation): Sigmoid()
              )
              (sa_drop): Dropout(p=0.15, inplace=False)
            )
            (mscb): MSCB(
              (pconv1): Sequential(
                (0): Conv2d(32, 64, kernel_size=(1, 1), stride=(1, 1), bias=False)
                (1): BatchNorm2d(64, eps=1e-05, momentum=0.1, affine=True, track_running_stats=True)
                (2): ReLU6(inplace=True)
              )
              (msdc): MSDC(
                (dwconvs): ModuleList(
                  (0): Sequential(
                    (0): Conv2d(64, 64, kernel_size=(1, 1), stride=(1, 1), groups=64, bias=False)
                    (1): BatchNorm2d(64, eps=1e-05, momentum=0.1, affine=True, track_running_stats=True)
                    (2): ReLU6(inplace=True)
                  )
                  (1): Sequential(
                    (0): Conv2d(64, 64, kernel_size=(3, 3), stride=(1, 1), padding=(1, 1), groups=64, bias=False)
                    (1): BatchNorm2d(64, eps=1e-05, momentum=0.1, affine=True, track_running_stats=True)
                    (2): ReLU6(inplace=True)
                  )
                  (2): Sequential(
                    (0): Conv2d(64, 64, kernel_size=(5, 5), stride=(1, 1), padding=(2, 2), groups=64, bias=False)
                    (1): BatchNorm2d(64, eps=1e-05, momentum=0.1, affine=True, track_running_stats=True)
                    (2): ReLU6(inplace=True)
                  )
                )
              )
              (pconv2): Sequential(
                (0): Conv2d(64, 32, kernel_size=(1, 1), stride=(1, 1), bias=False)
                (1): BatchNorm2d(32, eps=1e-05, momentum=0.1, affine=True, track_running_stats=True)
              )
            )
          )
          (conv51): UnetResBlock(
            (inception): Inception3D(
              (p1_1): Conv2p5D(
                (pointwise): Conv3d(32, 8, kernel_size=(1, 1, 1), stride=(1, 1, 1))
                (depthwise_spatial): Conv3d(8, 8, kernel_size=(1, 1, 1), stride=(1, 1, 1), groups=8)
                (depthwise_temporal): Conv3d(8, 8, kernel_size=(1, 1, 1), stride=(1, 1, 1), groups=8)
              )
              (p2_1): Conv2p5D(
                (pointwise): Conv3d(32, 4, kernel_size=(1, 1, 1), stride=(1, 1, 1))
                (depthwise_spatial): Conv3d(4, 4, kernel_size=(1, 1, 1), stride=(1, 1, 1), groups=4)
                (depthwise_temporal): Conv3d(4, 4, kernel_size=(1, 1, 1), stride=(1, 1, 1), groups=4)
              )
              (p2_2): Conv2p5D(
                (pointwise): Conv3d(4, 8, kernel_size=(1, 1, 1), stride=(1, 1, 1))
                (depthwise_spatial): Conv3d(8, 8, kernel_size=(1, 3, 3), stride=(1, 1, 1), padding=(0, 1, 1), groups=8)
                (depthwise_temporal): Conv3d(8, 8, kernel_size=(3, 1, 1), stride=(1, 1, 1), padding=(1, 0, 0), groups=8)
              )
              (p3_1): Conv2p5D(
                (pointwise): Conv3d(32, 4, kernel_size=(1, 1, 1), stride=(1, 1, 1))
                (depthwise_spatial): Conv3d(4, 4, kernel_size=(1, 1, 1), stride=(1, 1, 1), groups=4)
                (depthwise_temporal): Conv3d(4, 4, kernel_size=(1, 1, 1), stride=(1, 1, 1), groups=4)
              )
              (p3_2): Conv2p5D(
                (pointwise): Conv3d(4, 8, kernel_size=(1, 1, 1), stride=(1, 1, 1))
                (depthwise_spatial): Conv3d(8, 8, kernel_size=(1, 5, 5), stride=(1, 1, 1), padding=(0, 2, 2), groups=8)
                (depthwise_temporal): Conv3d(8, 8, kernel_size=(5, 1, 1), stride=(1, 1, 1), padding=(2, 0, 0), groups=8)
              )
              (p4_1): MaxPool3d(kernel_size=3, stride=1, padding=1, dilation=1, ceil_mode=False)
              (p4_2): Conv2p5D(
                (pointwise): Conv3d(32, 8, kernel_size=(1, 1, 1), stride=(1, 1, 1))
                (depthwise_spatial): Conv3d(8, 8, kernel_size=(1, 1, 1), stride=(1, 1, 1), groups=8)
                (depthwise_temporal): Conv3d(8, 8, kernel_size=(1, 1, 1), stride=(1, 1, 1), groups=8)
              )
            )
            (norm1): BatchNorm3d(32, eps=1e-05, momentum=0.1, affine=True, track_running_stats=True)
            (act): LeakyReLU(negative_slope=0.01, inplace=True)
            (inception2): Convolution(
              (conv): Conv3d(32, 32, kernel_size=(3, 3, 3), stride=(1, 1, 1), padding=(1, 1, 1), bias=False)
            )
            (norm2): BatchNorm3d(32, eps=1e-05, momentum=0.1, affine=True, track_running_stats=True)
          )
          (conv52): UnetResBlock(
            (inception): Inception3D(
              (p1_1): Conv2p5D(
                (pointwise): Conv3d(32, 8, kernel_size=(1, 1, 1), stride=(1, 1, 1))
                (depthwise_spatial): Conv3d(8, 8, kernel_size=(1, 1, 1), stride=(1, 1, 1), groups=8)
                (depthwise_temporal): Conv3d(8, 8, kernel_size=(1, 1, 1), stride=(1, 1, 1), groups=8)
              )
              (p2_1): Conv2p5D(
                (pointwise): Conv3d(32, 4, kernel_size=(1, 1, 1), stride=(1, 1, 1))
                (depthwise_spatial): Conv3d(4, 4, kernel_size=(1, 1, 1), stride=(1, 1, 1), groups=4)
                (depthwise_temporal): Conv3d(4, 4, kernel_size=(1, 1, 1), stride=(1, 1, 1), groups=4)
              )
              (p2_2): Conv2p5D(
                (pointwise): Conv3d(4, 8, kernel_size=(1, 1, 1), stride=(1, 1, 1))
                (depthwise_spatial): Conv3d(8, 8, kernel_size=(1, 3, 3), stride=(1, 1, 1), padding=(0, 1, 1), groups=8)
                (depthwise_temporal): Conv3d(8, 8, kernel_size=(3, 1, 1), stride=(1, 1, 1), padding=(1, 0, 0), groups=8)
              )
              (p3_1): Conv2p5D(
                (pointwise): Conv3d(32, 4, kernel_size=(1, 1, 1), stride=(1, 1, 1))
                (depthwise_spatial): Conv3d(4, 4, kernel_size=(1, 1, 1), stride=(1, 1, 1), groups=4)
                (depthwise_temporal): Conv3d(4, 4, kernel_size=(1, 1, 1), stride=(1, 1, 1), groups=4)
              )
              (p3_2): Conv2p5D(
                (pointwise): Conv3d(4, 8, kernel_size=(1, 1, 1), stride=(1, 1, 1))
                (depthwise_spatial): Conv3d(8, 8, kernel_size=(1, 5, 5), stride=(1, 1, 1), padding=(0, 2, 2), groups=8)
                (depthwise_temporal): Conv3d(8, 8, kernel_size=(5, 1, 1), stride=(1, 1, 1), padding=(2, 0, 0), groups=8)
              )
              (p4_1): MaxPool3d(kernel_size=3, stride=1, padding=1, dilation=1, ceil_mode=False)
              (p4_2): Conv2p5D(
                (pointwise): Conv3d(32, 8, kernel_size=(1, 1, 1), stride=(1, 1, 1))
                (depthwise_spatial): Conv3d(8, 8, kernel_size=(1, 1, 1), stride=(1, 1, 1), groups=8)
                (depthwise_temporal): Conv3d(8, 8, kernel_size=(1, 1, 1), stride=(1, 1, 1), groups=8)
              )
            )
            (norm1): BatchNorm3d(32, eps=1e-05, momentum=0.1, affine=True, track_running_stats=True)
            (act): LeakyReLU(negative_slope=0.01, inplace=True)
            (inception2): Convolution(
              (conv): Conv3d(32, 32, kernel_size=(3, 3, 3), stride=(1, 1, 1), padding=(1, 1, 1), bias=False)
            )
            (norm2): BatchNorm3d(32, eps=1e-05, momentum=0.1, affine=True, track_running_stats=True)
          )
          (conv8): Sequential(
            (0): Dropout3d(p=0.1, inplace=False)
            (1): Conv3d(32, 32, kernel_size=(1, 1, 1), stride=(1, 1, 1))
          )
        )
        (1): TransformerBlock(
          (norm): LayerNorm((32,), eps=1e-05, elementwise_affine=True)
          (epa_block): EPA(
            (epa): LightCBAM(
              (simam_channel): simam_module(
                (activation): Sigmoid()
              )
              (ca_drop): Dropout(p=0.15, inplace=False)
              (simam_spatial): simam_spatial(
                (activation): Sigmoid()
              )
              (sa_drop): Dropout(p=0.15, inplace=False)
            )
            (mscb): MSCB(
              (pconv1): Sequential(
                (0): Conv2d(32, 64, kernel_size=(1, 1), stride=(1, 1), bias=False)
                (1): BatchNorm2d(64, eps=1e-05, momentum=0.1, affine=True, track_running_stats=True)
                (2): ReLU6(inplace=True)
              )
              (msdc): MSDC(
                (dwconvs): ModuleList(
                  (0): Sequential(
                    (0): Conv2d(64, 64, kernel_size=(1, 1), stride=(1, 1), groups=64, bias=False)
                    (1): BatchNorm2d(64, eps=1e-05, momentum=0.1, affine=True, track_running_stats=True)
                    (2): ReLU6(inplace=True)
                  )
                  (1): Sequential(
                    (0): Conv2d(64, 64, kernel_size=(3, 3), stride=(1, 1), padding=(1, 1), groups=64, bias=False)
                    (1): BatchNorm2d(64, eps=1e-05, momentum=0.1, affine=True, track_running_stats=True)
                    (2): ReLU6(inplace=True)
                  )
                  (2): Sequential(
                    (0): Conv2d(64, 64, kernel_size=(5, 5), stride=(1, 1), padding=(2, 2), groups=64, bias=False)
                    (1): BatchNorm2d(64, eps=1e-05, momentum=0.1, affine=True, track_running_stats=True)
                    (2): ReLU6(inplace=True)
                  )
                )
              )
              (pconv2): Sequential(
                (0): Conv2d(64, 32, kernel_size=(1, 1), stride=(1, 1), bias=False)
                (1): BatchNorm2d(32, eps=1e-05, momentum=0.1, affine=True, track_running_stats=True)
              )
            )
          )
          (conv51): UnetResBlock(
            (inception): Inception3D(
              (p1_1): Conv2p5D(
                (pointwise): Conv3d(32, 8, kernel_size=(1, 1, 1), stride=(1, 1, 1))
                (depthwise_spatial): Conv3d(8, 8, kernel_size=(1, 1, 1), stride=(1, 1, 1), groups=8)
                (depthwise_temporal): Conv3d(8, 8, kernel_size=(1, 1, 1), stride=(1, 1, 1), groups=8)
              )
              (p2_1): Conv2p5D(
                (pointwise): Conv3d(32, 4, kernel_size=(1, 1, 1), stride=(1, 1, 1))
                (depthwise_spatial): Conv3d(4, 4, kernel_size=(1, 1, 1), stride=(1, 1, 1), groups=4)
                (depthwise_temporal): Conv3d(4, 4, kernel_size=(1, 1, 1), stride=(1, 1, 1), groups=4)
              )
              (p2_2): Conv2p5D(
                (pointwise): Conv3d(4, 8, kernel_size=(1, 1, 1), stride=(1, 1, 1))
                (depthwise_spatial): Conv3d(8, 8, kernel_size=(1, 3, 3), stride=(1, 1, 1), padding=(0, 1, 1), groups=8)
                (depthwise_temporal): Conv3d(8, 8, kernel_size=(3, 1, 1), stride=(1, 1, 1), padding=(1, 0, 0), groups=8)
              )
              (p3_1): Conv2p5D(
                (pointwise): Conv3d(32, 4, kernel_size=(1, 1, 1), stride=(1, 1, 1))
                (depthwise_spatial): Conv3d(4, 4, kernel_size=(1, 1, 1), stride=(1, 1, 1), groups=4)
                (depthwise_temporal): Conv3d(4, 4, kernel_size=(1, 1, 1), stride=(1, 1, 1), groups=4)
              )
              (p3_2): Conv2p5D(
                (pointwise): Conv3d(4, 8, kernel_size=(1, 1, 1), stride=(1, 1, 1))
                (depthwise_spatial): Conv3d(8, 8, kernel_size=(1, 5, 5), stride=(1, 1, 1), padding=(0, 2, 2), groups=8)
                (depthwise_temporal): Conv3d(8, 8, kernel_size=(5, 1, 1), stride=(1, 1, 1), padding=(2, 0, 0), groups=8)
              )
              (p4_1): MaxPool3d(kernel_size=3, stride=1, padding=1, dilation=1, ceil_mode=False)
              (p4_2): Conv2p5D(
                (pointwise): Conv3d(32, 8, kernel_size=(1, 1, 1), stride=(1, 1, 1))
                (depthwise_spatial): Conv3d(8, 8, kernel_size=(1, 1, 1), stride=(1, 1, 1), groups=8)
                (depthwise_temporal): Conv3d(8, 8, kernel_size=(1, 1, 1), stride=(1, 1, 1), groups=8)
              )
            )
            (norm1): BatchNorm3d(32, eps=1e-05, momentum=0.1, affine=True, track_running_stats=True)
            (act): LeakyReLU(negative_slope=0.01, inplace=True)
            (inception2): Convolution(
              (conv): Conv3d(32, 32, kernel_size=(3, 3, 3), stride=(1, 1, 1), padding=(1, 1, 1), bias=False)
            )
            (norm2): BatchNorm3d(32, eps=1e-05, momentum=0.1, affine=True, track_running_stats=True)
          )
          (conv52): UnetResBlock(
            (inception): Inception3D(
              (p1_1): Conv2p5D(
                (pointwise): Conv3d(32, 8, kernel_size=(1, 1, 1), stride=(1, 1, 1))
                (depthwise_spatial): Conv3d(8, 8, kernel_size=(1, 1, 1), stride=(1, 1, 1), groups=8)
                (depthwise_temporal): Conv3d(8, 8, kernel_size=(1, 1, 1), stride=(1, 1, 1), groups=8)
              )
              (p2_1): Conv2p5D(
                (pointwise): Conv3d(32, 4, kernel_size=(1, 1, 1), stride=(1, 1, 1))
                (depthwise_spatial): Conv3d(4, 4, kernel_size=(1, 1, 1), stride=(1, 1, 1), groups=4)
                (depthwise_temporal): Conv3d(4, 4, kernel_size=(1, 1, 1), stride=(1, 1, 1), groups=4)
              )
              (p2_2): Conv2p5D(
                (pointwise): Conv3d(4, 8, kernel_size=(1, 1, 1), stride=(1, 1, 1))
                (depthwise_spatial): Conv3d(8, 8, kernel_size=(1, 3, 3), stride=(1, 1, 1), padding=(0, 1, 1), groups=8)
                (depthwise_temporal): Conv3d(8, 8, kernel_size=(3, 1, 1), stride=(1, 1, 1), padding=(1, 0, 0), groups=8)
              )
              (p3_1): Conv2p5D(
                (pointwise): Conv3d(32, 4, kernel_size=(1, 1, 1), stride=(1, 1, 1))
                (depthwise_spatial): Conv3d(4, 4, kernel_size=(1, 1, 1), stride=(1, 1, 1), groups=4)
                (depthwise_temporal): Conv3d(4, 4, kernel_size=(1, 1, 1), stride=(1, 1, 1), groups=4)
              )
              (p3_2): Conv2p5D(
                (pointwise): Conv3d(4, 8, kernel_size=(1, 1, 1), stride=(1, 1, 1))
                (depthwise_spatial): Conv3d(8, 8, kernel_size=(1, 5, 5), stride=(1, 1, 1), padding=(0, 2, 2), groups=8)
                (depthwise_temporal): Conv3d(8, 8, kernel_size=(5, 1, 1), stride=(1, 1, 1), padding=(2, 0, 0), groups=8)
              )
              (p4_1): MaxPool3d(kernel_size=3, stride=1, padding=1, dilation=1, ceil_mode=False)
              (p4_2): Conv2p5D(
                (pointwise): Conv3d(32, 8, kernel_size=(1, 1, 1), stride=(1, 1, 1))
                (depthwise_spatial): Conv3d(8, 8, kernel_size=(1, 1, 1), stride=(1, 1, 1), groups=8)
                (depthwise_temporal): Conv3d(8, 8, kernel_size=(1, 1, 1), stride=(1, 1, 1), groups=8)
              )
            )
            (norm1): BatchNorm3d(32, eps=1e-05, momentum=0.1, affine=True, track_running_stats=True)
            (act): LeakyReLU(negative_slope=0.01, inplace=True)
            (inception2): Convolution(
              (conv): Conv3d(32, 32, kernel_size=(3, 3, 3), stride=(1, 1, 1), padding=(1, 1, 1), bias=False)
            )
            (norm2): BatchNorm3d(32, eps=1e-05, momentum=0.1, affine=True, track_running_stats=True)
          )
          (conv8): Sequential(
            (0): Dropout3d(p=0.1, inplace=False)
            (1): Conv3d(32, 32, kernel_size=(1, 1, 1), stride=(1, 1, 1))
          )
        )
        (2): TransformerBlock(
          (norm): LayerNorm((32,), eps=1e-05, elementwise_affine=True)
          (epa_block): EPA(
            (epa): LightCBAM(
              (simam_channel): simam_module(
                (activation): Sigmoid()
              )
              (ca_drop): Dropout(p=0.15, inplace=False)
              (simam_spatial): simam_spatial(
                (activation): Sigmoid()
              )
              (sa_drop): Dropout(p=0.15, inplace=False)
            )
            (mscb): MSCB(
              (pconv1): Sequential(
                (0): Conv2d(32, 64, kernel_size=(1, 1), stride=(1, 1), bias=False)
                (1): BatchNorm2d(64, eps=1e-05, momentum=0.1, affine=True, track_running_stats=True)
                (2): ReLU6(inplace=True)
              )
              (msdc): MSDC(
                (dwconvs): ModuleList(
                  (0): Sequential(
                    (0): Conv2d(64, 64, kernel_size=(1, 1), stride=(1, 1), groups=64, bias=False)
                    (1): BatchNorm2d(64, eps=1e-05, momentum=0.1, affine=True, track_running_stats=True)
                    (2): ReLU6(inplace=True)
                  )
                  (1): Sequential(
                    (0): Conv2d(64, 64, kernel_size=(3, 3), stride=(1, 1), padding=(1, 1), groups=64, bias=False)
                    (1): BatchNorm2d(64, eps=1e-05, momentum=0.1, affine=True, track_running_stats=True)
                    (2): ReLU6(inplace=True)
                  )
                  (2): Sequential(
                    (0): Conv2d(64, 64, kernel_size=(5, 5), stride=(1, 1), padding=(2, 2), groups=64, bias=False)
                    (1): BatchNorm2d(64, eps=1e-05, momentum=0.1, affine=True, track_running_stats=True)
                    (2): ReLU6(inplace=True)
                  )
                )
              )
              (pconv2): Sequential(
                (0): Conv2d(64, 32, kernel_size=(1, 1), stride=(1, 1), bias=False)
                (1): BatchNorm2d(32, eps=1e-05, momentum=0.1, affine=True, track_running_stats=True)
              )
            )
          )
          (conv51): UnetResBlock(
            (inception): Inception3D(
              (p1_1): Conv2p5D(
                (pointwise): Conv3d(32, 8, kernel_size=(1, 1, 1), stride=(1, 1, 1))
                (depthwise_spatial): Conv3d(8, 8, kernel_size=(1, 1, 1), stride=(1, 1, 1), groups=8)
                (depthwise_temporal): Conv3d(8, 8, kernel_size=(1, 1, 1), stride=(1, 1, 1), groups=8)
              )
              (p2_1): Conv2p5D(
                (pointwise): Conv3d(32, 4, kernel_size=(1, 1, 1), stride=(1, 1, 1))
                (depthwise_spatial): Conv3d(4, 4, kernel_size=(1, 1, 1), stride=(1, 1, 1), groups=4)
                (depthwise_temporal): Conv3d(4, 4, kernel_size=(1, 1, 1), stride=(1, 1, 1), groups=4)
              )
              (p2_2): Conv2p5D(
                (pointwise): Conv3d(4, 8, kernel_size=(1, 1, 1), stride=(1, 1, 1))
                (depthwise_spatial): Conv3d(8, 8, kernel_size=(1, 3, 3), stride=(1, 1, 1), padding=(0, 1, 1), groups=8)
                (depthwise_temporal): Conv3d(8, 8, kernel_size=(3, 1, 1), stride=(1, 1, 1), padding=(1, 0, 0), groups=8)
              )
              (p3_1): Conv2p5D(
                (pointwise): Conv3d(32, 4, kernel_size=(1, 1, 1), stride=(1, 1, 1))
                (depthwise_spatial): Conv3d(4, 4, kernel_size=(1, 1, 1), stride=(1, 1, 1), groups=4)
                (depthwise_temporal): Conv3d(4, 4, kernel_size=(1, 1, 1), stride=(1, 1, 1), groups=4)
              )
              (p3_2): Conv2p5D(
                (pointwise): Conv3d(4, 8, kernel_size=(1, 1, 1), stride=(1, 1, 1))
                (depthwise_spatial): Conv3d(8, 8, kernel_size=(1, 5, 5), stride=(1, 1, 1), padding=(0, 2, 2), groups=8)
                (depthwise_temporal): Conv3d(8, 8, kernel_size=(5, 1, 1), stride=(1, 1, 1), padding=(2, 0, 0), groups=8)
              )
              (p4_1): MaxPool3d(kernel_size=3, stride=1, padding=1, dilation=1, ceil_mode=False)
              (p4_2): Conv2p5D(
                (pointwise): Conv3d(32, 8, kernel_size=(1, 1, 1), stride=(1, 1, 1))
                (depthwise_spatial): Conv3d(8, 8, kernel_size=(1, 1, 1), stride=(1, 1, 1), groups=8)
                (depthwise_temporal): Conv3d(8, 8, kernel_size=(1, 1, 1), stride=(1, 1, 1), groups=8)
              )
            )
            (norm1): BatchNorm3d(32, eps=1e-05, momentum=0.1, affine=True, track_running_stats=True)
            (act): LeakyReLU(negative_slope=0.01, inplace=True)
            (inception2): Convolution(
              (conv): Conv3d(32, 32, kernel_size=(3, 3, 3), stride=(1, 1, 1), padding=(1, 1, 1), bias=False)
            )
            (norm2): BatchNorm3d(32, eps=1e-05, momentum=0.1, affine=True, track_running_stats=True)
          )
          (conv52): UnetResBlock(
            (inception): Inception3D(
              (p1_1): Conv2p5D(
                (pointwise): Conv3d(32, 8, kernel_size=(1, 1, 1), stride=(1, 1, 1))
                (depthwise_spatial): Conv3d(8, 8, kernel_size=(1, 1, 1), stride=(1, 1, 1), groups=8)
                (depthwise_temporal): Conv3d(8, 8, kernel_size=(1, 1, 1), stride=(1, 1, 1), groups=8)
              )
              (p2_1): Conv2p5D(
                (pointwise): Conv3d(32, 4, kernel_size=(1, 1, 1), stride=(1, 1, 1))
                (depthwise_spatial): Conv3d(4, 4, kernel_size=(1, 1, 1), stride=(1, 1, 1), groups=4)
                (depthwise_temporal): Conv3d(4, 4, kernel_size=(1, 1, 1), stride=(1, 1, 1), groups=4)
              )
              (p2_2): Conv2p5D(
                (pointwise): Conv3d(4, 8, kernel_size=(1, 1, 1), stride=(1, 1, 1))
                (depthwise_spatial): Conv3d(8, 8, kernel_size=(1, 3, 3), stride=(1, 1, 1), padding=(0, 1, 1), groups=8)
                (depthwise_temporal): Conv3d(8, 8, kernel_size=(3, 1, 1), stride=(1, 1, 1), padding=(1, 0, 0), groups=8)
              )
              (p3_1): Conv2p5D(
                (pointwise): Conv3d(32, 4, kernel_size=(1, 1, 1), stride=(1, 1, 1))
                (depthwise_spatial): Conv3d(4, 4, kernel_size=(1, 1, 1), stride=(1, 1, 1), groups=4)
                (depthwise_temporal): Conv3d(4, 4, kernel_size=(1, 1, 1), stride=(1, 1, 1), groups=4)
              )
              (p3_2): Conv2p5D(
                (pointwise): Conv3d(4, 8, kernel_size=(1, 1, 1), stride=(1, 1, 1))
                (depthwise_spatial): Conv3d(8, 8, kernel_size=(1, 5, 5), stride=(1, 1, 1), padding=(0, 2, 2), groups=8)
                (depthwise_temporal): Conv3d(8, 8, kernel_size=(5, 1, 1), stride=(1, 1, 1), padding=(2, 0, 0), groups=8)
              )
              (p4_1): MaxPool3d(kernel_size=3, stride=1, padding=1, dilation=1, ceil_mode=False)
              (p4_2): Conv2p5D(
                (pointwise): Conv3d(32, 8, kernel_size=(1, 1, 1), stride=(1, 1, 1))
                (depthwise_spatial): Conv3d(8, 8, kernel_size=(1, 1, 1), stride=(1, 1, 1), groups=8)
                (depthwise_temporal): Conv3d(8, 8, kernel_size=(1, 1, 1), stride=(1, 1, 1), groups=8)
              )
            )
            (norm1): BatchNorm3d(32, eps=1e-05, momentum=0.1, affine=True, track_running_stats=True)
            (act): LeakyReLU(negative_slope=0.01, inplace=True)
            (inception2): Convolution(
              (conv): Conv3d(32, 32, kernel_size=(3, 3, 3), stride=(1, 1, 1), padding=(1, 1, 1), bias=False)
            )
            (norm2): BatchNorm3d(32, eps=1e-05, momentum=0.1, affine=True, track_running_stats=True)
          )
          (conv8): Sequential(
            (0): Dropout3d(p=0.1, inplace=False)
            (1): Conv3d(32, 32, kernel_size=(1, 1, 1), stride=(1, 1, 1))
          )
        )
      )
      (1): Sequential(
        (0): TransformerBlock(
          (norm): LayerNorm((64,), eps=1e-05, elementwise_affine=True)
          (epa_block): EPA(
            (epa): LightCBAM(
              (simam_channel): simam_module(
                (activation): Sigmoid()
              )
              (ca_drop): Dropout(p=0.15, inplace=False)
              (simam_spatial): simam_spatial(
                (activation): Sigmoid()
              )
              (sa_drop): Dropout(p=0.15, inplace=False)
            )
            (mscb): MSCB(
              (pconv1): Sequential(
                (0): Conv2d(64, 128, kernel_size=(1, 1), stride=(1, 1), bias=False)
                (1): BatchNorm2d(128, eps=1e-05, momentum=0.1, affine=True, track_running_stats=True)
                (2): ReLU6(inplace=True)
              )
              (msdc): MSDC(
                (dwconvs): ModuleList(
                  (0): Sequential(
                    (0): Conv2d(128, 128, kernel_size=(1, 1), stride=(1, 1), groups=128, bias=False)
                    (1): BatchNorm2d(128, eps=1e-05, momentum=0.1, affine=True, track_running_stats=True)
                    (2): ReLU6(inplace=True)
                  )
                  (1): Sequential(
                    (0): Conv2d(128, 128, kernel_size=(3, 3), stride=(1, 1), padding=(1, 1), groups=128, bias=False)
                    (1): BatchNorm2d(128, eps=1e-05, momentum=0.1, affine=True, track_running_stats=True)
                    (2): ReLU6(inplace=True)
                  )
                  (2): Sequential(
                    (0): Conv2d(128, 128, kernel_size=(5, 5), stride=(1, 1), padding=(2, 2), groups=128, bias=False)
                    (1): BatchNorm2d(128, eps=1e-05, momentum=0.1, affine=True, track_running_stats=True)
                    (2): ReLU6(inplace=True)
                  )
                )
              )
              (pconv2): Sequential(
                (0): Conv2d(128, 64, kernel_size=(1, 1), stride=(1, 1), bias=False)
                (1): BatchNorm2d(64, eps=1e-05, momentum=0.1, affine=True, track_running_stats=True)
              )
            )
          )
          (conv51): UnetResBlock(
            (inception): Inception3D(
              (p1_1): Conv2p5D(
                (pointwise): Conv3d(64, 16, kernel_size=(1, 1, 1), stride=(1, 1, 1))
                (depthwise_spatial): Conv3d(16, 16, kernel_size=(1, 1, 1), stride=(1, 1, 1), groups=16)
                (depthwise_temporal): Conv3d(16, 16, kernel_size=(1, 1, 1), stride=(1, 1, 1), groups=16)
              )
              (p2_1): Conv2p5D(
                (pointwise): Conv3d(64, 8, kernel_size=(1, 1, 1), stride=(1, 1, 1))
                (depthwise_spatial): Conv3d(8, 8, kernel_size=(1, 1, 1), stride=(1, 1, 1), groups=8)
                (depthwise_temporal): Conv3d(8, 8, kernel_size=(1, 1, 1), stride=(1, 1, 1), groups=8)
              )
              (p2_2): Conv2p5D(
                (pointwise): Conv3d(8, 16, kernel_size=(1, 1, 1), stride=(1, 1, 1))
                (depthwise_spatial): Conv3d(16, 16, kernel_size=(1, 3, 3), stride=(1, 1, 1), padding=(0, 1, 1), groups=16)
                (depthwise_temporal): Conv3d(16, 16, kernel_size=(3, 1, 1), stride=(1, 1, 1), padding=(1, 0, 0), groups=16)
              )
              (p3_1): Conv2p5D(
                (pointwise): Conv3d(64, 8, kernel_size=(1, 1, 1), stride=(1, 1, 1))
                (depthwise_spatial): Conv3d(8, 8, kernel_size=(1, 1, 1), stride=(1, 1, 1), groups=8)
                (depthwise_temporal): Conv3d(8, 8, kernel_size=(1, 1, 1), stride=(1, 1, 1), groups=8)
              )
              (p3_2): Conv2p5D(
                (pointwise): Conv3d(8, 16, kernel_size=(1, 1, 1), stride=(1, 1, 1))
                (depthwise_spatial): Conv3d(16, 16, kernel_size=(1, 5, 5), stride=(1, 1, 1), padding=(0, 2, 2), groups=16)
                (depthwise_temporal): Conv3d(16, 16, kernel_size=(5, 1, 1), stride=(1, 1, 1), padding=(2, 0, 0), groups=16)
              )
              (p4_1): MaxPool3d(kernel_size=3, stride=1, padding=1, dilation=1, ceil_mode=False)
              (p4_2): Conv2p5D(
                (pointwise): Conv3d(64, 16, kernel_size=(1, 1, 1), stride=(1, 1, 1))
                (depthwise_spatial): Conv3d(16, 16, kernel_size=(1, 1, 1), stride=(1, 1, 1), groups=16)
                (depthwise_temporal): Conv3d(16, 16, kernel_size=(1, 1, 1), stride=(1, 1, 1), groups=16)
              )
            )
            (norm1): BatchNorm3d(64, eps=1e-05, momentum=0.1, affine=True, track_running_stats=True)
            (act): LeakyReLU(negative_slope=0.01, inplace=True)
            (inception2): Convolution(
              (conv): Conv3d(64, 64, kernel_size=(3, 3, 3), stride=(1, 1, 1), padding=(1, 1, 1), bias=False)
            )
            (norm2): BatchNorm3d(64, eps=1e-05, momentum=0.1, affine=True, track_running_stats=True)
          )
          (conv52): UnetResBlock(
            (inception): Inception3D(
              (p1_1): Conv2p5D(
                (pointwise): Conv3d(64, 16, kernel_size=(1, 1, 1), stride=(1, 1, 1))
                (depthwise_spatial): Conv3d(16, 16, kernel_size=(1, 1, 1), stride=(1, 1, 1), groups=16)
                (depthwise_temporal): Conv3d(16, 16, kernel_size=(1, 1, 1), stride=(1, 1, 1), groups=16)
              )
              (p2_1): Conv2p5D(
                (pointwise): Conv3d(64, 8, kernel_size=(1, 1, 1), stride=(1, 1, 1))
                (depthwise_spatial): Conv3d(8, 8, kernel_size=(1, 1, 1), stride=(1, 1, 1), groups=8)
                (depthwise_temporal): Conv3d(8, 8, kernel_size=(1, 1, 1), stride=(1, 1, 1), groups=8)
              )
              (p2_2): Conv2p5D(
                (pointwise): Conv3d(8, 16, kernel_size=(1, 1, 1), stride=(1, 1, 1))
                (depthwise_spatial): Conv3d(16, 16, kernel_size=(1, 3, 3), stride=(1, 1, 1), padding=(0, 1, 1), groups=16)
                (depthwise_temporal): Conv3d(16, 16, kernel_size=(3, 1, 1), stride=(1, 1, 1), padding=(1, 0, 0), groups=16)
              )
              (p3_1): Conv2p5D(
                (pointwise): Conv3d(64, 8, kernel_size=(1, 1, 1), stride=(1, 1, 1))
                (depthwise_spatial): Conv3d(8, 8, kernel_size=(1, 1, 1), stride=(1, 1, 1), groups=8)
                (depthwise_temporal): Conv3d(8, 8, kernel_size=(1, 1, 1), stride=(1, 1, 1), groups=8)
              )
              (p3_2): Conv2p5D(
                (pointwise): Conv3d(8, 16, kernel_size=(1, 1, 1), stride=(1, 1, 1))
                (depthwise_spatial): Conv3d(16, 16, kernel_size=(1, 5, 5), stride=(1, 1, 1), padding=(0, 2, 2), groups=16)
                (depthwise_temporal): Conv3d(16, 16, kernel_size=(5, 1, 1), stride=(1, 1, 1), padding=(2, 0, 0), groups=16)
              )
              (p4_1): MaxPool3d(kernel_size=3, stride=1, padding=1, dilation=1, ceil_mode=False)
              (p4_2): Conv2p5D(
                (pointwise): Conv3d(64, 16, kernel_size=(1, 1, 1), stride=(1, 1, 1))
                (depthwise_spatial): Conv3d(16, 16, kernel_size=(1, 1, 1), stride=(1, 1, 1), groups=16)
                (depthwise_temporal): Conv3d(16, 16, kernel_size=(1, 1, 1), stride=(1, 1, 1), groups=16)
              )
            )
            (norm1): BatchNorm3d(64, eps=1e-05, momentum=0.1, affine=True, track_running_stats=True)
            (act): LeakyReLU(negative_slope=0.01, inplace=True)
            (inception2): Convolution(
              (conv): Conv3d(64, 64, kernel_size=(3, 3, 3), stride=(1, 1, 1), padding=(1, 1, 1), bias=False)
            )
            (norm2): BatchNorm3d(64, eps=1e-05, momentum=0.1, affine=True, track_running_stats=True)
          )
          (conv8): Sequential(
            (0): Dropout3d(p=0.1, inplace=False)
            (1): Conv3d(64, 64, kernel_size=(1, 1, 1), stride=(1, 1, 1))
          )
        )
        (1): TransformerBlock(
          (norm): LayerNorm((64,), eps=1e-05, elementwise_affine=True)
          (epa_block): EPA(
            (epa): LightCBAM(
              (simam_channel): simam_module(
                (activation): Sigmoid()
              )
              (ca_drop): Dropout(p=0.15, inplace=False)
              (simam_spatial): simam_spatial(
                (activation): Sigmoid()
              )
              (sa_drop): Dropout(p=0.15, inplace=False)
            )
            (mscb): MSCB(
              (pconv1): Sequential(
                (0): Conv2d(64, 128, kernel_size=(1, 1), stride=(1, 1), bias=False)
                (1): BatchNorm2d(128, eps=1e-05, momentum=0.1, affine=True, track_running_stats=True)
                (2): ReLU6(inplace=True)
              )
              (msdc): MSDC(
                (dwconvs): ModuleList(
                  (0): Sequential(
                    (0): Conv2d(128, 128, kernel_size=(1, 1), stride=(1, 1), groups=128, bias=False)
                    (1): BatchNorm2d(128, eps=1e-05, momentum=0.1, affine=True, track_running_stats=True)
                    (2): ReLU6(inplace=True)
                  )
                  (1): Sequential(
                    (0): Conv2d(128, 128, kernel_size=(3, 3), stride=(1, 1), padding=(1, 1), groups=128, bias=False)
                    (1): BatchNorm2d(128, eps=1e-05, momentum=0.1, affine=True, track_running_stats=True)
                    (2): ReLU6(inplace=True)
                  )
                  (2): Sequential(
                    (0): Conv2d(128, 128, kernel_size=(5, 5), stride=(1, 1), padding=(2, 2), groups=128, bias=False)
                    (1): BatchNorm2d(128, eps=1e-05, momentum=0.1, affine=True, track_running_stats=True)
                    (2): ReLU6(inplace=True)
                  )
                )
              )
              (pconv2): Sequential(
                (0): Conv2d(128, 64, kernel_size=(1, 1), stride=(1, 1), bias=False)
                (1): BatchNorm2d(64, eps=1e-05, momentum=0.1, affine=True, track_running_stats=True)
              )
            )
          )
          (conv51): UnetResBlock(
            (inception): Inception3D(
              (p1_1): Conv2p5D(
                (pointwise): Conv3d(64, 16, kernel_size=(1, 1, 1), stride=(1, 1, 1))
                (depthwise_spatial): Conv3d(16, 16, kernel_size=(1, 1, 1), stride=(1, 1, 1), groups=16)
                (depthwise_temporal): Conv3d(16, 16, kernel_size=(1, 1, 1), stride=(1, 1, 1), groups=16)
              )
              (p2_1): Conv2p5D(
                (pointwise): Conv3d(64, 8, kernel_size=(1, 1, 1), stride=(1, 1, 1))
                (depthwise_spatial): Conv3d(8, 8, kernel_size=(1, 1, 1), stride=(1, 1, 1), groups=8)
                (depthwise_temporal): Conv3d(8, 8, kernel_size=(1, 1, 1), stride=(1, 1, 1), groups=8)
              )
              (p2_2): Conv2p5D(
                (pointwise): Conv3d(8, 16, kernel_size=(1, 1, 1), stride=(1, 1, 1))
                (depthwise_spatial): Conv3d(16, 16, kernel_size=(1, 3, 3), stride=(1, 1, 1), padding=(0, 1, 1), groups=16)
                (depthwise_temporal): Conv3d(16, 16, kernel_size=(3, 1, 1), stride=(1, 1, 1), padding=(1, 0, 0), groups=16)
              )
              (p3_1): Conv2p5D(
                (pointwise): Conv3d(64, 8, kernel_size=(1, 1, 1), stride=(1, 1, 1))
                (depthwise_spatial): Conv3d(8, 8, kernel_size=(1, 1, 1), stride=(1, 1, 1), groups=8)
                (depthwise_temporal): Conv3d(8, 8, kernel_size=(1, 1, 1), stride=(1, 1, 1), groups=8)
              )
              (p3_2): Conv2p5D(
                (pointwise): Conv3d(8, 16, kernel_size=(1, 1, 1), stride=(1, 1, 1))
                (depthwise_spatial): Conv3d(16, 16, kernel_size=(1, 5, 5), stride=(1, 1, 1), padding=(0, 2, 2), groups=16)
                (depthwise_temporal): Conv3d(16, 16, kernel_size=(5, 1, 1), stride=(1, 1, 1), padding=(2, 0, 0), groups=16)
              )
              (p4_1): MaxPool3d(kernel_size=3, stride=1, padding=1, dilation=1, ceil_mode=False)
              (p4_2): Conv2p5D(
                (pointwise): Conv3d(64, 16, kernel_size=(1, 1, 1), stride=(1, 1, 1))
                (depthwise_spatial): Conv3d(16, 16, kernel_size=(1, 1, 1), stride=(1, 1, 1), groups=16)
                (depthwise_temporal): Conv3d(16, 16, kernel_size=(1, 1, 1), stride=(1, 1, 1), groups=16)
              )
            )
            (norm1): BatchNorm3d(64, eps=1e-05, momentum=0.1, affine=True, track_running_stats=True)
            (act): LeakyReLU(negative_slope=0.01, inplace=True)
            (inception2): Convolution(
              (conv): Conv3d(64, 64, kernel_size=(3, 3, 3), stride=(1, 1, 1), padding=(1, 1, 1), bias=False)
            )
            (norm2): BatchNorm3d(64, eps=1e-05, momentum=0.1, affine=True, track_running_stats=True)
          )
          (conv52): UnetResBlock(
            (inception): Inception3D(
              (p1_1): Conv2p5D(
                (pointwise): Conv3d(64, 16, kernel_size=(1, 1, 1), stride=(1, 1, 1))
                (depthwise_spatial): Conv3d(16, 16, kernel_size=(1, 1, 1), stride=(1, 1, 1), groups=16)
                (depthwise_temporal): Conv3d(16, 16, kernel_size=(1, 1, 1), stride=(1, 1, 1), groups=16)
              )
              (p2_1): Conv2p5D(
                (pointwise): Conv3d(64, 8, kernel_size=(1, 1, 1), stride=(1, 1, 1))
                (depthwise_spatial): Conv3d(8, 8, kernel_size=(1, 1, 1), stride=(1, 1, 1), groups=8)
                (depthwise_temporal): Conv3d(8, 8, kernel_size=(1, 1, 1), stride=(1, 1, 1), groups=8)
              )
              (p2_2): Conv2p5D(
                (pointwise): Conv3d(8, 16, kernel_size=(1, 1, 1), stride=(1, 1, 1))
                (depthwise_spatial): Conv3d(16, 16, kernel_size=(1, 3, 3), stride=(1, 1, 1), padding=(0, 1, 1), groups=16)
                (depthwise_temporal): Conv3d(16, 16, kernel_size=(3, 1, 1), stride=(1, 1, 1), padding=(1, 0, 0), groups=16)
              )
              (p3_1): Conv2p5D(
                (pointwise): Conv3d(64, 8, kernel_size=(1, 1, 1), stride=(1, 1, 1))
                (depthwise_spatial): Conv3d(8, 8, kernel_size=(1, 1, 1), stride=(1, 1, 1), groups=8)
                (depthwise_temporal): Conv3d(8, 8, kernel_size=(1, 1, 1), stride=(1, 1, 1), groups=8)
              )
              (p3_2): Conv2p5D(
                (pointwise): Conv3d(8, 16, kernel_size=(1, 1, 1), stride=(1, 1, 1))
                (depthwise_spatial): Conv3d(16, 16, kernel_size=(1, 5, 5), stride=(1, 1, 1), padding=(0, 2, 2), groups=16)
                (depthwise_temporal): Conv3d(16, 16, kernel_size=(5, 1, 1), stride=(1, 1, 1), padding=(2, 0, 0), groups=16)
              )
              (p4_1): MaxPool3d(kernel_size=3, stride=1, padding=1, dilation=1, ceil_mode=False)
              (p4_2): Conv2p5D(
                (pointwise): Conv3d(64, 16, kernel_size=(1, 1, 1), stride=(1, 1, 1))
                (depthwise_spatial): Conv3d(16, 16, kernel_size=(1, 1, 1), stride=(1, 1, 1), groups=16)
                (depthwise_temporal): Conv3d(16, 16, kernel_size=(1, 1, 1), stride=(1, 1, 1), groups=16)
              )
            )
            (norm1): BatchNorm3d(64, eps=1e-05, momentum=0.1, affine=True, track_running_stats=True)
            (act): LeakyReLU(negative_slope=0.01, inplace=True)
            (inception2): Convolution(
              (conv): Conv3d(64, 64, kernel_size=(3, 3, 3), stride=(1, 1, 1), padding=(1, 1, 1), bias=False)
            )
            (norm2): BatchNorm3d(64, eps=1e-05, momentum=0.1, affine=True, track_running_stats=True)
          )
          (conv8): Sequential(
            (0): Dropout3d(p=0.1, inplace=False)
            (1): Conv3d(64, 64, kernel_size=(1, 1, 1), stride=(1, 1, 1))
          )
        )
        (2): TransformerBlock(
          (norm): LayerNorm((64,), eps=1e-05, elementwise_affine=True)
          (epa_block): EPA(
            (epa): LightCBAM(
              (simam_channel): simam_module(
                (activation): Sigmoid()
              )
              (ca_drop): Dropout(p=0.15, inplace=False)
              (simam_spatial): simam_spatial(
                (activation): Sigmoid()
              )
              (sa_drop): Dropout(p=0.15, inplace=False)
            )
            (mscb): MSCB(
              (pconv1): Sequential(
                (0): Conv2d(64, 128, kernel_size=(1, 1), stride=(1, 1), bias=False)
                (1): BatchNorm2d(128, eps=1e-05, momentum=0.1, affine=True, track_running_stats=True)
                (2): ReLU6(inplace=True)
              )
              (msdc): MSDC(
                (dwconvs): ModuleList(
                  (0): Sequential(
                    (0): Conv2d(128, 128, kernel_size=(1, 1), stride=(1, 1), groups=128, bias=False)
                    (1): BatchNorm2d(128, eps=1e-05, momentum=0.1, affine=True, track_running_stats=True)
                    (2): ReLU6(inplace=True)
                  )
                  (1): Sequential(
                    (0): Conv2d(128, 128, kernel_size=(3, 3), stride=(1, 1), padding=(1, 1), groups=128, bias=False)
                    (1): BatchNorm2d(128, eps=1e-05, momentum=0.1, affine=True, track_running_stats=True)
                    (2): ReLU6(inplace=True)
                  )
                  (2): Sequential(
                    (0): Conv2d(128, 128, kernel_size=(5, 5), stride=(1, 1), padding=(2, 2), groups=128, bias=False)
                    (1): BatchNorm2d(128, eps=1e-05, momentum=0.1, affine=True, track_running_stats=True)
                    (2): ReLU6(inplace=True)
                  )
                )
              )
              (pconv2): Sequential(
                (0): Conv2d(128, 64, kernel_size=(1, 1), stride=(1, 1), bias=False)
                (1): BatchNorm2d(64, eps=1e-05, momentum=0.1, affine=True, track_running_stats=True)
              )
            )
          )
          (conv51): UnetResBlock(
            (inception): Inception3D(
              (p1_1): Conv2p5D(
                (pointwise): Conv3d(64, 16, kernel_size=(1, 1, 1), stride=(1, 1, 1))
                (depthwise_spatial): Conv3d(16, 16, kernel_size=(1, 1, 1), stride=(1, 1, 1), groups=16)
                (depthwise_temporal): Conv3d(16, 16, kernel_size=(1, 1, 1), stride=(1, 1, 1), groups=16)
              )
              (p2_1): Conv2p5D(
                (pointwise): Conv3d(64, 8, kernel_size=(1, 1, 1), stride=(1, 1, 1))
                (depthwise_spatial): Conv3d(8, 8, kernel_size=(1, 1, 1), stride=(1, 1, 1), groups=8)
                (depthwise_temporal): Conv3d(8, 8, kernel_size=(1, 1, 1), stride=(1, 1, 1), groups=8)
              )
              (p2_2): Conv2p5D(
                (pointwise): Conv3d(8, 16, kernel_size=(1, 1, 1), stride=(1, 1, 1))
                (depthwise_spatial): Conv3d(16, 16, kernel_size=(1, 3, 3), stride=(1, 1, 1), padding=(0, 1, 1), groups=16)
                (depthwise_temporal): Conv3d(16, 16, kernel_size=(3, 1, 1), stride=(1, 1, 1), padding=(1, 0, 0), groups=16)
              )
              (p3_1): Conv2p5D(
                (pointwise): Conv3d(64, 8, kernel_size=(1, 1, 1), stride=(1, 1, 1))
                (depthwise_spatial): Conv3d(8, 8, kernel_size=(1, 1, 1), stride=(1, 1, 1), groups=8)
                (depthwise_temporal): Conv3d(8, 8, kernel_size=(1, 1, 1), stride=(1, 1, 1), groups=8)
              )
              (p3_2): Conv2p5D(
                (pointwise): Conv3d(8, 16, kernel_size=(1, 1, 1), stride=(1, 1, 1))
                (depthwise_spatial): Conv3d(16, 16, kernel_size=(1, 5, 5), stride=(1, 1, 1), padding=(0, 2, 2), groups=16)
                (depthwise_temporal): Conv3d(16, 16, kernel_size=(5, 1, 1), stride=(1, 1, 1), padding=(2, 0, 0), groups=16)
              )
              (p4_1): MaxPool3d(kernel_size=3, stride=1, padding=1, dilation=1, ceil_mode=False)
              (p4_2): Conv2p5D(
                (pointwise): Conv3d(64, 16, kernel_size=(1, 1, 1), stride=(1, 1, 1))
                (depthwise_spatial): Conv3d(16, 16, kernel_size=(1, 1, 1), stride=(1, 1, 1), groups=16)
                (depthwise_temporal): Conv3d(16, 16, kernel_size=(1, 1, 1), stride=(1, 1, 1), groups=16)
              )
            )
            (norm1): BatchNorm3d(64, eps=1e-05, momentum=0.1, affine=True, track_running_stats=True)
            (act): LeakyReLU(negative_slope=0.01, inplace=True)
            (inception2): Convolution(
              (conv): Conv3d(64, 64, kernel_size=(3, 3, 3), stride=(1, 1, 1), padding=(1, 1, 1), bias=False)
            )
            (norm2): BatchNorm3d(64, eps=1e-05, momentum=0.1, affine=True, track_running_stats=True)
          )
          (conv52): UnetResBlock(
            (inception): Inception3D(
              (p1_1): Conv2p5D(
                (pointwise): Conv3d(64, 16, kernel_size=(1, 1, 1), stride=(1, 1, 1))
                (depthwise_spatial): Conv3d(16, 16, kernel_size=(1, 1, 1), stride=(1, 1, 1), groups=16)
                (depthwise_temporal): Conv3d(16, 16, kernel_size=(1, 1, 1), stride=(1, 1, 1), groups=16)
              )
              (p2_1): Conv2p5D(
                (pointwise): Conv3d(64, 8, kernel_size=(1, 1, 1), stride=(1, 1, 1))
                (depthwise_spatial): Conv3d(8, 8, kernel_size=(1, 1, 1), stride=(1, 1, 1), groups=8)
                (depthwise_temporal): Conv3d(8, 8, kernel_size=(1, 1, 1), stride=(1, 1, 1), groups=8)
              )
              (p2_2): Conv2p5D(
                (pointwise): Conv3d(8, 16, kernel_size=(1, 1, 1), stride=(1, 1, 1))
                (depthwise_spatial): Conv3d(16, 16, kernel_size=(1, 3, 3), stride=(1, 1, 1), padding=(0, 1, 1), groups=16)
                (depthwise_temporal): Conv3d(16, 16, kernel_size=(3, 1, 1), stride=(1, 1, 1), padding=(1, 0, 0), groups=16)
              )
              (p3_1): Conv2p5D(
                (pointwise): Conv3d(64, 8, kernel_size=(1, 1, 1), stride=(1, 1, 1))
                (depthwise_spatial): Conv3d(8, 8, kernel_size=(1, 1, 1), stride=(1, 1, 1), groups=8)
                (depthwise_temporal): Conv3d(8, 8, kernel_size=(1, 1, 1), stride=(1, 1, 1), groups=8)
              )
              (p3_2): Conv2p5D(
                (pointwise): Conv3d(8, 16, kernel_size=(1, 1, 1), stride=(1, 1, 1))
                (depthwise_spatial): Conv3d(16, 16, kernel_size=(1, 5, 5), stride=(1, 1, 1), padding=(0, 2, 2), groups=16)
                (depthwise_temporal): Conv3d(16, 16, kernel_size=(5, 1, 1), stride=(1, 1, 1), padding=(2, 0, 0), groups=16)
              )
              (p4_1): MaxPool3d(kernel_size=3, stride=1, padding=1, dilation=1, ceil_mode=False)
              (p4_2): Conv2p5D(
                (pointwise): Conv3d(64, 16, kernel_size=(1, 1, 1), stride=(1, 1, 1))
                (depthwise_spatial): Conv3d(16, 16, kernel_size=(1, 1, 1), stride=(1, 1, 1), groups=16)
                (depthwise_temporal): Conv3d(16, 16, kernel_size=(1, 1, 1), stride=(1, 1, 1), groups=16)
              )
            )
            (norm1): BatchNorm3d(64, eps=1e-05, momentum=0.1, affine=True, track_running_stats=True)
            (act): LeakyReLU(negative_slope=0.01, inplace=True)
            (inception2): Convolution(
              (conv): Conv3d(64, 64, kernel_size=(3, 3, 3), stride=(1, 1, 1), padding=(1, 1, 1), bias=False)
            )
            (norm2): BatchNorm3d(64, eps=1e-05, momentum=0.1, affine=True, track_running_stats=True)
          )
          (conv8): Sequential(
            (0): Dropout3d(p=0.1, inplace=False)
            (1): Conv3d(64, 64, kernel_size=(1, 1, 1), stride=(1, 1, 1))
          )
        )
      )
      (2): Sequential(
        (0): TransformerBlock(
          (norm): LayerNorm((128,), eps=1e-05, elementwise_affine=True)
          (epa_block): EPA(
            (epa): LightCBAM(
              (simam_channel): simam_module(
                (activation): Sigmoid()
              )
              (ca_drop): Dropout(p=0.15, inplace=False)
              (simam_spatial): simam_spatial(
                (activation): Sigmoid()
              )
              (sa_drop): Dropout(p=0.15, inplace=False)
            )
            (mscb): MSCB(
              (pconv1): Sequential(
                (0): Conv2d(128, 256, kernel_size=(1, 1), stride=(1, 1), bias=False)
                (1): BatchNorm2d(256, eps=1e-05, momentum=0.1, affine=True, track_running_stats=True)
                (2): ReLU6(inplace=True)
              )
              (msdc): MSDC(
                (dwconvs): ModuleList(
                  (0): Sequential(
                    (0): Conv2d(256, 256, kernel_size=(1, 1), stride=(1, 1), groups=256, bias=False)
                    (1): BatchNorm2d(256, eps=1e-05, momentum=0.1, affine=True, track_running_stats=True)
                    (2): ReLU6(inplace=True)
                  )
                  (1): Sequential(
                    (0): Conv2d(256, 256, kernel_size=(3, 3), stride=(1, 1), padding=(1, 1), groups=256, bias=False)
                    (1): BatchNorm2d(256, eps=1e-05, momentum=0.1, affine=True, track_running_stats=True)
                    (2): ReLU6(inplace=True)
                  )
                  (2): Sequential(
                    (0): Conv2d(256, 256, kernel_size=(5, 5), stride=(1, 1), padding=(2, 2), groups=256, bias=False)
                    (1): BatchNorm2d(256, eps=1e-05, momentum=0.1, affine=True, track_running_stats=True)
                    (2): ReLU6(inplace=True)
                  )
                )
              )
              (pconv2): Sequential(
                (0): Conv2d(256, 128, kernel_size=(1, 1), stride=(1, 1), bias=False)
                (1): BatchNorm2d(128, eps=1e-05, momentum=0.1, affine=True, track_running_stats=True)
              )
            )
          )
          (conv51): UnetResBlock(
            (inception): Inception3D(
              (p1_1): Conv2p5D(
                (pointwise): Conv3d(128, 32, kernel_size=(1, 1, 1), stride=(1, 1, 1))
                (depthwise_spatial): Conv3d(32, 32, kernel_size=(1, 1, 1), stride=(1, 1, 1), groups=32)
                (depthwise_temporal): Conv3d(32, 32, kernel_size=(1, 1, 1), stride=(1, 1, 1), groups=32)
              )
              (p2_1): Conv2p5D(
                (pointwise): Conv3d(128, 16, kernel_size=(1, 1, 1), stride=(1, 1, 1))
                (depthwise_spatial): Conv3d(16, 16, kernel_size=(1, 1, 1), stride=(1, 1, 1), groups=16)
                (depthwise_temporal): Conv3d(16, 16, kernel_size=(1, 1, 1), stride=(1, 1, 1), groups=16)
              )
              (p2_2): Conv2p5D(
                (pointwise): Conv3d(16, 32, kernel_size=(1, 1, 1), stride=(1, 1, 1))
                (depthwise_spatial): Conv3d(32, 32, kernel_size=(1, 3, 3), stride=(1, 1, 1), padding=(0, 1, 1), groups=32)
                (depthwise_temporal): Conv3d(32, 32, kernel_size=(3, 1, 1), stride=(1, 1, 1), padding=(1, 0, 0), groups=32)
              )
              (p3_1): Conv2p5D(
                (pointwise): Conv3d(128, 16, kernel_size=(1, 1, 1), stride=(1, 1, 1))
                (depthwise_spatial): Conv3d(16, 16, kernel_size=(1, 1, 1), stride=(1, 1, 1), groups=16)
                (depthwise_temporal): Conv3d(16, 16, kernel_size=(1, 1, 1), stride=(1, 1, 1), groups=16)
              )
              (p3_2): Conv2p5D(
                (pointwise): Conv3d(16, 32, kernel_size=(1, 1, 1), stride=(1, 1, 1))
                (depthwise_spatial): Conv3d(32, 32, kernel_size=(1, 5, 5), stride=(1, 1, 1), padding=(0, 2, 2), groups=32)
                (depthwise_temporal): Conv3d(32, 32, kernel_size=(5, 1, 1), stride=(1, 1, 1), padding=(2, 0, 0), groups=32)
              )
              (p4_1): MaxPool3d(kernel_size=3, stride=1, padding=1, dilation=1, ceil_mode=False)
              (p4_2): Conv2p5D(
                (pointwise): Conv3d(128, 32, kernel_size=(1, 1, 1), stride=(1, 1, 1))
                (depthwise_spatial): Conv3d(32, 32, kernel_size=(1, 1, 1), stride=(1, 1, 1), groups=32)
                (depthwise_temporal): Conv3d(32, 32, kernel_size=(1, 1, 1), stride=(1, 1, 1), groups=32)
              )
            )
            (norm1): BatchNorm3d(128, eps=1e-05, momentum=0.1, affine=True, track_running_stats=True)
            (act): LeakyReLU(negative_slope=0.01, inplace=True)
            (inception2): Convolution(
              (conv): Conv3d(128, 128, kernel_size=(3, 3, 3), stride=(1, 1, 1), padding=(1, 1, 1), bias=False)
            )
            (norm2): BatchNorm3d(128, eps=1e-05, momentum=0.1, affine=True, track_running_stats=True)
          )
          (conv52): UnetResBlock(
            (inception): Inception3D(
              (p1_1): Conv2p5D(
                (pointwise): Conv3d(128, 32, kernel_size=(1, 1, 1), stride=(1, 1, 1))
                (depthwise_spatial): Conv3d(32, 32, kernel_size=(1, 1, 1), stride=(1, 1, 1), groups=32)
                (depthwise_temporal): Conv3d(32, 32, kernel_size=(1, 1, 1), stride=(1, 1, 1), groups=32)
              )
              (p2_1): Conv2p5D(
                (pointwise): Conv3d(128, 16, kernel_size=(1, 1, 1), stride=(1, 1, 1))
                (depthwise_spatial): Conv3d(16, 16, kernel_size=(1, 1, 1), stride=(1, 1, 1), groups=16)
                (depthwise_temporal): Conv3d(16, 16, kernel_size=(1, 1, 1), stride=(1, 1, 1), groups=16)
              )
              (p2_2): Conv2p5D(
                (pointwise): Conv3d(16, 32, kernel_size=(1, 1, 1), stride=(1, 1, 1))
                (depthwise_spatial): Conv3d(32, 32, kernel_size=(1, 3, 3), stride=(1, 1, 1), padding=(0, 1, 1), groups=32)
                (depthwise_temporal): Conv3d(32, 32, kernel_size=(3, 1, 1), stride=(1, 1, 1), padding=(1, 0, 0), groups=32)
              )
              (p3_1): Conv2p5D(
                (pointwise): Conv3d(128, 16, kernel_size=(1, 1, 1), stride=(1, 1, 1))
                (depthwise_spatial): Conv3d(16, 16, kernel_size=(1, 1, 1), stride=(1, 1, 1), groups=16)
                (depthwise_temporal): Conv3d(16, 16, kernel_size=(1, 1, 1), stride=(1, 1, 1), groups=16)
              )
              (p3_2): Conv2p5D(
                (pointwise): Conv3d(16, 32, kernel_size=(1, 1, 1), stride=(1, 1, 1))
                (depthwise_spatial): Conv3d(32, 32, kernel_size=(1, 5, 5), stride=(1, 1, 1), padding=(0, 2, 2), groups=32)
                (depthwise_temporal): Conv3d(32, 32, kernel_size=(5, 1, 1), stride=(1, 1, 1), padding=(2, 0, 0), groups=32)
              )
              (p4_1): MaxPool3d(kernel_size=3, stride=1, padding=1, dilation=1, ceil_mode=False)
              (p4_2): Conv2p5D(
                (pointwise): Conv3d(128, 32, kernel_size=(1, 1, 1), stride=(1, 1, 1))
                (depthwise_spatial): Conv3d(32, 32, kernel_size=(1, 1, 1), stride=(1, 1, 1), groups=32)
                (depthwise_temporal): Conv3d(32, 32, kernel_size=(1, 1, 1), stride=(1, 1, 1), groups=32)
              )
            )
            (norm1): BatchNorm3d(128, eps=1e-05, momentum=0.1, affine=True, track_running_stats=True)
            (act): LeakyReLU(negative_slope=0.01, inplace=True)
            (inception2): Convolution(
              (conv): Conv3d(128, 128, kernel_size=(3, 3, 3), stride=(1, 1, 1), padding=(1, 1, 1), bias=False)
            )
            (norm2): BatchNorm3d(128, eps=1e-05, momentum=0.1, affine=True, track_running_stats=True)
          )
          (conv8): Sequential(
            (0): Dropout3d(p=0.1, inplace=False)
            (1): Conv3d(128, 128, kernel_size=(1, 1, 1), stride=(1, 1, 1))
          )
        )
        (1): TransformerBlock(
          (norm): LayerNorm((128,), eps=1e-05, elementwise_affine=True)
          (epa_block): EPA(
            (epa): LightCBAM(
              (simam_channel): simam_module(
                (activation): Sigmoid()
              )
              (ca_drop): Dropout(p=0.15, inplace=False)
              (simam_spatial): simam_spatial(
                (activation): Sigmoid()
              )
              (sa_drop): Dropout(p=0.15, inplace=False)
            )
            (mscb): MSCB(
              (pconv1): Sequential(
                (0): Conv2d(128, 256, kernel_size=(1, 1), stride=(1, 1), bias=False)
                (1): BatchNorm2d(256, eps=1e-05, momentum=0.1, affine=True, track_running_stats=True)
                (2): ReLU6(inplace=True)
              )
              (msdc): MSDC(
                (dwconvs): ModuleList(
                  (0): Sequential(
                    (0): Conv2d(256, 256, kernel_size=(1, 1), stride=(1, 1), groups=256, bias=False)
                    (1): BatchNorm2d(256, eps=1e-05, momentum=0.1, affine=True, track_running_stats=True)
                    (2): ReLU6(inplace=True)
                  )
                  (1): Sequential(
                    (0): Conv2d(256, 256, kernel_size=(3, 3), stride=(1, 1), padding=(1, 1), groups=256, bias=False)
                    (1): BatchNorm2d(256, eps=1e-05, momentum=0.1, affine=True, track_running_stats=True)
                    (2): ReLU6(inplace=True)
                  )
                  (2): Sequential(
                    (0): Conv2d(256, 256, kernel_size=(5, 5), stride=(1, 1), padding=(2, 2), groups=256, bias=False)
                    (1): BatchNorm2d(256, eps=1e-05, momentum=0.1, affine=True, track_running_stats=True)
                    (2): ReLU6(inplace=True)
                  )
                )
              )
              (pconv2): Sequential(
                (0): Conv2d(256, 128, kernel_size=(1, 1), stride=(1, 1), bias=False)
                (1): BatchNorm2d(128, eps=1e-05, momentum=0.1, affine=True, track_running_stats=True)
              )
            )
          )
          (conv51): UnetResBlock(
            (inception): Inception3D(
              (p1_1): Conv2p5D(
                (pointwise): Conv3d(128, 32, kernel_size=(1, 1, 1), stride=(1, 1, 1))
                (depthwise_spatial): Conv3d(32, 32, kernel_size=(1, 1, 1), stride=(1, 1, 1), groups=32)
                (depthwise_temporal): Conv3d(32, 32, kernel_size=(1, 1, 1), stride=(1, 1, 1), groups=32)
              )
              (p2_1): Conv2p5D(
                (pointwise): Conv3d(128, 16, kernel_size=(1, 1, 1), stride=(1, 1, 1))
                (depthwise_spatial): Conv3d(16, 16, kernel_size=(1, 1, 1), stride=(1, 1, 1), groups=16)
                (depthwise_temporal): Conv3d(16, 16, kernel_size=(1, 1, 1), stride=(1, 1, 1), groups=16)
              )
              (p2_2): Conv2p5D(
                (pointwise): Conv3d(16, 32, kernel_size=(1, 1, 1), stride=(1, 1, 1))
                (depthwise_spatial): Conv3d(32, 32, kernel_size=(1, 3, 3), stride=(1, 1, 1), padding=(0, 1, 1), groups=32)
                (depthwise_temporal): Conv3d(32, 32, kernel_size=(3, 1, 1), stride=(1, 1, 1), padding=(1, 0, 0), groups=32)
              )
              (p3_1): Conv2p5D(
                (pointwise): Conv3d(128, 16, kernel_size=(1, 1, 1), stride=(1, 1, 1))
                (depthwise_spatial): Conv3d(16, 16, kernel_size=(1, 1, 1), stride=(1, 1, 1), groups=16)
                (depthwise_temporal): Conv3d(16, 16, kernel_size=(1, 1, 1), stride=(1, 1, 1), groups=16)
              )
              (p3_2): Conv2p5D(
                (pointwise): Conv3d(16, 32, kernel_size=(1, 1, 1), stride=(1, 1, 1))
                (depthwise_spatial): Conv3d(32, 32, kernel_size=(1, 5, 5), stride=(1, 1, 1), padding=(0, 2, 2), groups=32)
                (depthwise_temporal): Conv3d(32, 32, kernel_size=(5, 1, 1), stride=(1, 1, 1), padding=(2, 0, 0), groups=32)
              )
              (p4_1): MaxPool3d(kernel_size=3, stride=1, padding=1, dilation=1, ceil_mode=False)
              (p4_2): Conv2p5D(
                (pointwise): Conv3d(128, 32, kernel_size=(1, 1, 1), stride=(1, 1, 1))
                (depthwise_spatial): Conv3d(32, 32, kernel_size=(1, 1, 1), stride=(1, 1, 1), groups=32)
                (depthwise_temporal): Conv3d(32, 32, kernel_size=(1, 1, 1), stride=(1, 1, 1), groups=32)
              )
            )
            (norm1): BatchNorm3d(128, eps=1e-05, momentum=0.1, affine=True, track_running_stats=True)
            (act): LeakyReLU(negative_slope=0.01, inplace=True)
            (inception2): Convolution(
              (conv): Conv3d(128, 128, kernel_size=(3, 3, 3), stride=(1, 1, 1), padding=(1, 1, 1), bias=False)
            )
            (norm2): BatchNorm3d(128, eps=1e-05, momentum=0.1, affine=True, track_running_stats=True)
          )
          (conv52): UnetResBlock(
            (inception): Inception3D(
              (p1_1): Conv2p5D(
                (pointwise): Conv3d(128, 32, kernel_size=(1, 1, 1), stride=(1, 1, 1))
                (depthwise_spatial): Conv3d(32, 32, kernel_size=(1, 1, 1), stride=(1, 1, 1), groups=32)
                (depthwise_temporal): Conv3d(32, 32, kernel_size=(1, 1, 1), stride=(1, 1, 1), groups=32)
              )
              (p2_1): Conv2p5D(
                (pointwise): Conv3d(128, 16, kernel_size=(1, 1, 1), stride=(1, 1, 1))
                (depthwise_spatial): Conv3d(16, 16, kernel_size=(1, 1, 1), stride=(1, 1, 1), groups=16)
                (depthwise_temporal): Conv3d(16, 16, kernel_size=(1, 1, 1), stride=(1, 1, 1), groups=16)
              )
              (p2_2): Conv2p5D(
                (pointwise): Conv3d(16, 32, kernel_size=(1, 1, 1), stride=(1, 1, 1))
                (depthwise_spatial): Conv3d(32, 32, kernel_size=(1, 3, 3), stride=(1, 1, 1), padding=(0, 1, 1), groups=32)
                (depthwise_temporal): Conv3d(32, 32, kernel_size=(3, 1, 1), stride=(1, 1, 1), padding=(1, 0, 0), groups=32)
              )
              (p3_1): Conv2p5D(
                (pointwise): Conv3d(128, 16, kernel_size=(1, 1, 1), stride=(1, 1, 1))
                (depthwise_spatial): Conv3d(16, 16, kernel_size=(1, 1, 1), stride=(1, 1, 1), groups=16)
                (depthwise_temporal): Conv3d(16, 16, kernel_size=(1, 1, 1), stride=(1, 1, 1), groups=16)
              )
              (p3_2): Conv2p5D(
                (pointwise): Conv3d(16, 32, kernel_size=(1, 1, 1), stride=(1, 1, 1))
                (depthwise_spatial): Conv3d(32, 32, kernel_size=(1, 5, 5), stride=(1, 1, 1), padding=(0, 2, 2), groups=32)
                (depthwise_temporal): Conv3d(32, 32, kernel_size=(5, 1, 1), stride=(1, 1, 1), padding=(2, 0, 0), groups=32)
              )
              (p4_1): MaxPool3d(kernel_size=3, stride=1, padding=1, dilation=1, ceil_mode=False)
              (p4_2): Conv2p5D(
                (pointwise): Conv3d(128, 32, kernel_size=(1, 1, 1), stride=(1, 1, 1))
                (depthwise_spatial): Conv3d(32, 32, kernel_size=(1, 1, 1), stride=(1, 1, 1), groups=32)
                (depthwise_temporal): Conv3d(32, 32, kernel_size=(1, 1, 1), stride=(1, 1, 1), groups=32)
              )
            )
            (norm1): BatchNorm3d(128, eps=1e-05, momentum=0.1, affine=True, track_running_stats=True)
            (act): LeakyReLU(negative_slope=0.01, inplace=True)
            (inception2): Convolution(
              (conv): Conv3d(128, 128, kernel_size=(3, 3, 3), stride=(1, 1, 1), padding=(1, 1, 1), bias=False)
            )
            (norm2): BatchNorm3d(128, eps=1e-05, momentum=0.1, affine=True, track_running_stats=True)
          )
          (conv8): Sequential(
            (0): Dropout3d(p=0.1, inplace=False)
            (1): Conv3d(128, 128, kernel_size=(1, 1, 1), stride=(1, 1, 1))
          )
        )
        (2): TransformerBlock(
          (norm): LayerNorm((128,), eps=1e-05, elementwise_affine=True)
          (epa_block): EPA(
            (epa): LightCBAM(
              (simam_channel): simam_module(
                (activation): Sigmoid()
              )
              (ca_drop): Dropout(p=0.15, inplace=False)
              (simam_spatial): simam_spatial(
                (activation): Sigmoid()
              )
              (sa_drop): Dropout(p=0.15, inplace=False)
            )
            (mscb): MSCB(
              (pconv1): Sequential(
                (0): Conv2d(128, 256, kernel_size=(1, 1), stride=(1, 1), bias=False)
                (1): BatchNorm2d(256, eps=1e-05, momentum=0.1, affine=True, track_running_stats=True)
                (2): ReLU6(inplace=True)
              )
              (msdc): MSDC(
                (dwconvs): ModuleList(
                  (0): Sequential(
                    (0): Conv2d(256, 256, kernel_size=(1, 1), stride=(1, 1), groups=256, bias=False)
                    (1): BatchNorm2d(256, eps=1e-05, momentum=0.1, affine=True, track_running_stats=True)
                    (2): ReLU6(inplace=True)
                  )
                  (1): Sequential(
                    (0): Conv2d(256, 256, kernel_size=(3, 3), stride=(1, 1), padding=(1, 1), groups=256, bias=False)
                    (1): BatchNorm2d(256, eps=1e-05, momentum=0.1, affine=True, track_running_stats=True)
                    (2): ReLU6(inplace=True)
                  )
                  (2): Sequential(
                    (0): Conv2d(256, 256, kernel_size=(5, 5), stride=(1, 1), padding=(2, 2), groups=256, bias=False)
                    (1): BatchNorm2d(256, eps=1e-05, momentum=0.1, affine=True, track_running_stats=True)
                    (2): ReLU6(inplace=True)
                  )
                )
              )
              (pconv2): Sequential(
                (0): Conv2d(256, 128, kernel_size=(1, 1), stride=(1, 1), bias=False)
                (1): BatchNorm2d(128, eps=1e-05, momentum=0.1, affine=True, track_running_stats=True)
              )
            )
          )
          (conv51): UnetResBlock(
            (inception): Inception3D(
              (p1_1): Conv2p5D(
                (pointwise): Conv3d(128, 32, kernel_size=(1, 1, 1), stride=(1, 1, 1))
                (depthwise_spatial): Conv3d(32, 32, kernel_size=(1, 1, 1), stride=(1, 1, 1), groups=32)
                (depthwise_temporal): Conv3d(32, 32, kernel_size=(1, 1, 1), stride=(1, 1, 1), groups=32)
              )
              (p2_1): Conv2p5D(
                (pointwise): Conv3d(128, 16, kernel_size=(1, 1, 1), stride=(1, 1, 1))
                (depthwise_spatial): Conv3d(16, 16, kernel_size=(1, 1, 1), stride=(1, 1, 1), groups=16)
                (depthwise_temporal): Conv3d(16, 16, kernel_size=(1, 1, 1), stride=(1, 1, 1), groups=16)
              )
              (p2_2): Conv2p5D(
                (pointwise): Conv3d(16, 32, kernel_size=(1, 1, 1), stride=(1, 1, 1))
                (depthwise_spatial): Conv3d(32, 32, kernel_size=(1, 3, 3), stride=(1, 1, 1), padding=(0, 1, 1), groups=32)
                (depthwise_temporal): Conv3d(32, 32, kernel_size=(3, 1, 1), stride=(1, 1, 1), padding=(1, 0, 0), groups=32)
              )
              (p3_1): Conv2p5D(
                (pointwise): Conv3d(128, 16, kernel_size=(1, 1, 1), stride=(1, 1, 1))
                (depthwise_spatial): Conv3d(16, 16, kernel_size=(1, 1, 1), stride=(1, 1, 1), groups=16)
                (depthwise_temporal): Conv3d(16, 16, kernel_size=(1, 1, 1), stride=(1, 1, 1), groups=16)
              )
              (p3_2): Conv2p5D(
                (pointwise): Conv3d(16, 32, kernel_size=(1, 1, 1), stride=(1, 1, 1))
                (depthwise_spatial): Conv3d(32, 32, kernel_size=(1, 5, 5), stride=(1, 1, 1), padding=(0, 2, 2), groups=32)
                (depthwise_temporal): Conv3d(32, 32, kernel_size=(5, 1, 1), stride=(1, 1, 1), padding=(2, 0, 0), groups=32)
              )
              (p4_1): MaxPool3d(kernel_size=3, stride=1, padding=1, dilation=1, ceil_mode=False)
              (p4_2): Conv2p5D(
                (pointwise): Conv3d(128, 32, kernel_size=(1, 1, 1), stride=(1, 1, 1))
                (depthwise_spatial): Conv3d(32, 32, kernel_size=(1, 1, 1), stride=(1, 1, 1), groups=32)
                (depthwise_temporal): Conv3d(32, 32, kernel_size=(1, 1, 1), stride=(1, 1, 1), groups=32)
              )
            )
            (norm1): BatchNorm3d(128, eps=1e-05, momentum=0.1, affine=True, track_running_stats=True)
            (act): LeakyReLU(negative_slope=0.01, inplace=True)
            (inception2): Convolution(
              (conv): Conv3d(128, 128, kernel_size=(3, 3, 3), stride=(1, 1, 1), padding=(1, 1, 1), bias=False)
            )
            (norm2): BatchNorm3d(128, eps=1e-05, momentum=0.1, affine=True, track_running_stats=True)
          )
          (conv52): UnetResBlock(
            (inception): Inception3D(
              (p1_1): Conv2p5D(
                (pointwise): Conv3d(128, 32, kernel_size=(1, 1, 1), stride=(1, 1, 1))
                (depthwise_spatial): Conv3d(32, 32, kernel_size=(1, 1, 1), stride=(1, 1, 1), groups=32)
                (depthwise_temporal): Conv3d(32, 32, kernel_size=(1, 1, 1), stride=(1, 1, 1), groups=32)
              )
              (p2_1): Conv2p5D(
                (pointwise): Conv3d(128, 16, kernel_size=(1, 1, 1), stride=(1, 1, 1))
                (depthwise_spatial): Conv3d(16, 16, kernel_size=(1, 1, 1), stride=(1, 1, 1), groups=16)
                (depthwise_temporal): Conv3d(16, 16, kernel_size=(1, 1, 1), stride=(1, 1, 1), groups=16)
              )
              (p2_2): Conv2p5D(
                (pointwise): Conv3d(16, 32, kernel_size=(1, 1, 1), stride=(1, 1, 1))
                (depthwise_spatial): Conv3d(32, 32, kernel_size=(1, 3, 3), stride=(1, 1, 1), padding=(0, 1, 1), groups=32)
                (depthwise_temporal): Conv3d(32, 32, kernel_size=(3, 1, 1), stride=(1, 1, 1), padding=(1, 0, 0), groups=32)
              )
              (p3_1): Conv2p5D(
                (pointwise): Conv3d(128, 16, kernel_size=(1, 1, 1), stride=(1, 1, 1))
                (depthwise_spatial): Conv3d(16, 16, kernel_size=(1, 1, 1), stride=(1, 1, 1), groups=16)
                (depthwise_temporal): Conv3d(16, 16, kernel_size=(1, 1, 1), stride=(1, 1, 1), groups=16)
              )
              (p3_2): Conv2p5D(
                (pointwise): Conv3d(16, 32, kernel_size=(1, 1, 1), stride=(1, 1, 1))
                (depthwise_spatial): Conv3d(32, 32, kernel_size=(1, 5, 5), stride=(1, 1, 1), padding=(0, 2, 2), groups=32)
                (depthwise_temporal): Conv3d(32, 32, kernel_size=(5, 1, 1), stride=(1, 1, 1), padding=(2, 0, 0), groups=32)
              )
              (p4_1): MaxPool3d(kernel_size=3, stride=1, padding=1, dilation=1, ceil_mode=False)
              (p4_2): Conv2p5D(
                (pointwise): Conv3d(128, 32, kernel_size=(1, 1, 1), stride=(1, 1, 1))
                (depthwise_spatial): Conv3d(32, 32, kernel_size=(1, 1, 1), stride=(1, 1, 1), groups=32)
                (depthwise_temporal): Conv3d(32, 32, kernel_size=(1, 1, 1), stride=(1, 1, 1), groups=32)
              )
            )
            (norm1): BatchNorm3d(128, eps=1e-05, momentum=0.1, affine=True, track_running_stats=True)
            (act): LeakyReLU(negative_slope=0.01, inplace=True)
            (inception2): Convolution(
              (conv): Conv3d(128, 128, kernel_size=(3, 3, 3), stride=(1, 1, 1), padding=(1, 1, 1), bias=False)
            )
            (norm2): BatchNorm3d(128, eps=1e-05, momentum=0.1, affine=True, track_running_stats=True)
          )
          (conv8): Sequential(
            (0): Dropout3d(p=0.1, inplace=False)
            (1): Conv3d(128, 128, kernel_size=(1, 1, 1), stride=(1, 1, 1))
          )
        )
      )
      (3): Sequential(
        (0): TransformerBlock(
          (norm): LayerNorm((256,), eps=1e-05, elementwise_affine=True)
          (epa_block): EPA(
            (epa): LightCBAM(
              (simam_channel): simam_module(
                (activation): Sigmoid()
              )
              (ca_drop): Dropout(p=0.15, inplace=False)
              (simam_spatial): simam_spatial(
                (activation): Sigmoid()
              )
              (sa_drop): Dropout(p=0.15, inplace=False)
            )
            (mscb): MSCB(
              (pconv1): Sequential(
                (0): Conv2d(256, 512, kernel_size=(1, 1), stride=(1, 1), bias=False)
                (1): BatchNorm2d(512, eps=1e-05, momentum=0.1, affine=True, track_running_stats=True)
                (2): ReLU6(inplace=True)
              )
              (msdc): MSDC(
                (dwconvs): ModuleList(
                  (0): Sequential(
                    (0): Conv2d(512, 512, kernel_size=(1, 1), stride=(1, 1), groups=512, bias=False)
                    (1): BatchNorm2d(512, eps=1e-05, momentum=0.1, affine=True, track_running_stats=True)
                    (2): ReLU6(inplace=True)
                  )
                  (1): Sequential(
                    (0): Conv2d(512, 512, kernel_size=(3, 3), stride=(1, 1), padding=(1, 1), groups=512, bias=False)
                    (1): BatchNorm2d(512, eps=1e-05, momentum=0.1, affine=True, track_running_stats=True)
                    (2): ReLU6(inplace=True)
                  )
                  (2): Sequential(
                    (0): Conv2d(512, 512, kernel_size=(5, 5), stride=(1, 1), padding=(2, 2), groups=512, bias=False)
                    (1): BatchNorm2d(512, eps=1e-05, momentum=0.1, affine=True, track_running_stats=True)
                    (2): ReLU6(inplace=True)
                  )
                )
              )
              (pconv2): Sequential(
                (0): Conv2d(512, 256, kernel_size=(1, 1), stride=(1, 1), bias=False)
                (1): BatchNorm2d(256, eps=1e-05, momentum=0.1, affine=True, track_running_stats=True)
              )
            )
          )
          (conv51): UnetResBlock(
            (inception): Inception3D(
              (p1_1): Conv2p5D(
                (pointwise): Conv3d(256, 64, kernel_size=(1, 1, 1), stride=(1, 1, 1))
                (depthwise_spatial): Conv3d(64, 64, kernel_size=(1, 1, 1), stride=(1, 1, 1), groups=64)
                (depthwise_temporal): Conv3d(64, 64, kernel_size=(1, 1, 1), stride=(1, 1, 1), groups=64)
              )
              (p2_1): Conv2p5D(
                (pointwise): Conv3d(256, 32, kernel_size=(1, 1, 1), stride=(1, 1, 1))
                (depthwise_spatial): Conv3d(32, 32, kernel_size=(1, 1, 1), stride=(1, 1, 1), groups=32)
                (depthwise_temporal): Conv3d(32, 32, kernel_size=(1, 1, 1), stride=(1, 1, 1), groups=32)
              )
              (p2_2): Conv2p5D(
                (pointwise): Conv3d(32, 64, kernel_size=(1, 1, 1), stride=(1, 1, 1))
                (depthwise_spatial): Conv3d(64, 64, kernel_size=(1, 3, 3), stride=(1, 1, 1), padding=(0, 1, 1), groups=64)
                (depthwise_temporal): Conv3d(64, 64, kernel_size=(3, 1, 1), stride=(1, 1, 1), padding=(1, 0, 0), groups=64)
              )
              (p3_1): Conv2p5D(
                (pointwise): Conv3d(256, 32, kernel_size=(1, 1, 1), stride=(1, 1, 1))
                (depthwise_spatial): Conv3d(32, 32, kernel_size=(1, 1, 1), stride=(1, 1, 1), groups=32)
                (depthwise_temporal): Conv3d(32, 32, kernel_size=(1, 1, 1), stride=(1, 1, 1), groups=32)
              )
              (p3_2): Conv2p5D(
                (pointwise): Conv3d(32, 64, kernel_size=(1, 1, 1), stride=(1, 1, 1))
                (depthwise_spatial): Conv3d(64, 64, kernel_size=(1, 5, 5), stride=(1, 1, 1), padding=(0, 2, 2), groups=64)
                (depthwise_temporal): Conv3d(64, 64, kernel_size=(5, 1, 1), stride=(1, 1, 1), padding=(2, 0, 0), groups=64)
              )
              (p4_1): MaxPool3d(kernel_size=3, stride=1, padding=1, dilation=1, ceil_mode=False)
              (p4_2): Conv2p5D(
                (pointwise): Conv3d(256, 64, kernel_size=(1, 1, 1), stride=(1, 1, 1))
                (depthwise_spatial): Conv3d(64, 64, kernel_size=(1, 1, 1), stride=(1, 1, 1), groups=64)
                (depthwise_temporal): Conv3d(64, 64, kernel_size=(1, 1, 1), stride=(1, 1, 1), groups=64)
              )
            )
            (norm1): BatchNorm3d(256, eps=1e-05, momentum=0.1, affine=True, track_running_stats=True)
            (act): LeakyReLU(negative_slope=0.01, inplace=True)
            (inception2): Convolution(
              (conv): Conv3d(256, 256, kernel_size=(3, 3, 3), stride=(1, 1, 1), padding=(1, 1, 1), bias=False)
            )
            (norm2): BatchNorm3d(256, eps=1e-05, momentum=0.1, affine=True, track_running_stats=True)
          )
          (conv52): UnetResBlock(
            (inception): Inception3D(
              (p1_1): Conv2p5D(
                (pointwise): Conv3d(256, 64, kernel_size=(1, 1, 1), stride=(1, 1, 1))
                (depthwise_spatial): Conv3d(64, 64, kernel_size=(1, 1, 1), stride=(1, 1, 1), groups=64)
                (depthwise_temporal): Conv3d(64, 64, kernel_size=(1, 1, 1), stride=(1, 1, 1), groups=64)
              )
              (p2_1): Conv2p5D(
                (pointwise): Conv3d(256, 32, kernel_size=(1, 1, 1), stride=(1, 1, 1))
                (depthwise_spatial): Conv3d(32, 32, kernel_size=(1, 1, 1), stride=(1, 1, 1), groups=32)
                (depthwise_temporal): Conv3d(32, 32, kernel_size=(1, 1, 1), stride=(1, 1, 1), groups=32)
              )
              (p2_2): Conv2p5D(
                (pointwise): Conv3d(32, 64, kernel_size=(1, 1, 1), stride=(1, 1, 1))
                (depthwise_spatial): Conv3d(64, 64, kernel_size=(1, 3, 3), stride=(1, 1, 1), padding=(0, 1, 1), groups=64)
                (depthwise_temporal): Conv3d(64, 64, kernel_size=(3, 1, 1), stride=(1, 1, 1), padding=(1, 0, 0), groups=64)
              )
              (p3_1): Conv2p5D(
                (pointwise): Conv3d(256, 32, kernel_size=(1, 1, 1), stride=(1, 1, 1))
                (depthwise_spatial): Conv3d(32, 32, kernel_size=(1, 1, 1), stride=(1, 1, 1), groups=32)
                (depthwise_temporal): Conv3d(32, 32, kernel_size=(1, 1, 1), stride=(1, 1, 1), groups=32)
              )
              (p3_2): Conv2p5D(
                (pointwise): Conv3d(32, 64, kernel_size=(1, 1, 1), stride=(1, 1, 1))
                (depthwise_spatial): Conv3d(64, 64, kernel_size=(1, 5, 5), stride=(1, 1, 1), padding=(0, 2, 2), groups=64)
                (depthwise_temporal): Conv3d(64, 64, kernel_size=(5, 1, 1), stride=(1, 1, 1), padding=(2, 0, 0), groups=64)
              )
              (p4_1): MaxPool3d(kernel_size=3, stride=1, padding=1, dilation=1, ceil_mode=False)
              (p4_2): Conv2p5D(
                (pointwise): Conv3d(256, 64, kernel_size=(1, 1, 1), stride=(1, 1, 1))
                (depthwise_spatial): Conv3d(64, 64, kernel_size=(1, 1, 1), stride=(1, 1, 1), groups=64)
                (depthwise_temporal): Conv3d(64, 64, kernel_size=(1, 1, 1), stride=(1, 1, 1), groups=64)
              )
            )
            (norm1): BatchNorm3d(256, eps=1e-05, momentum=0.1, affine=True, track_running_stats=True)
            (act): LeakyReLU(negative_slope=0.01, inplace=True)
            (inception2): Convolution(
              (conv): Conv3d(256, 256, kernel_size=(3, 3, 3), stride=(1, 1, 1), padding=(1, 1, 1), bias=False)
            )
            (norm2): BatchNorm3d(256, eps=1e-05, momentum=0.1, affine=True, track_running_stats=True)
          )
          (conv8): Sequential(
            (0): Dropout3d(p=0.1, inplace=False)
            (1): Conv3d(256, 256, kernel_size=(1, 1, 1), stride=(1, 1, 1))
          )
        )
        (1): TransformerBlock(
          (norm): LayerNorm((256,), eps=1e-05, elementwise_affine=True)
          (epa_block): EPA(
            (epa): LightCBAM(
              (simam_channel): simam_module(
                (activation): Sigmoid()
              )
              (ca_drop): Dropout(p=0.15, inplace=False)
              (simam_spatial): simam_spatial(
                (activation): Sigmoid()
              )
              (sa_drop): Dropout(p=0.15, inplace=False)
            )
            (mscb): MSCB(
              (pconv1): Sequential(
                (0): Conv2d(256, 512, kernel_size=(1, 1), stride=(1, 1), bias=False)
                (1): BatchNorm2d(512, eps=1e-05, momentum=0.1, affine=True, track_running_stats=True)
                (2): ReLU6(inplace=True)
              )
              (msdc): MSDC(
                (dwconvs): ModuleList(
                  (0): Sequential(
                    (0): Conv2d(512, 512, kernel_size=(1, 1), stride=(1, 1), groups=512, bias=False)
                    (1): BatchNorm2d(512, eps=1e-05, momentum=0.1, affine=True, track_running_stats=True)
                    (2): ReLU6(inplace=True)
                  )
                  (1): Sequential(
                    (0): Conv2d(512, 512, kernel_size=(3, 3), stride=(1, 1), padding=(1, 1), groups=512, bias=False)
                    (1): BatchNorm2d(512, eps=1e-05, momentum=0.1, affine=True, track_running_stats=True)
                    (2): ReLU6(inplace=True)
                  )
                  (2): Sequential(
                    (0): Conv2d(512, 512, kernel_size=(5, 5), stride=(1, 1), padding=(2, 2), groups=512, bias=False)
                    (1): BatchNorm2d(512, eps=1e-05, momentum=0.1, affine=True, track_running_stats=True)
                    (2): ReLU6(inplace=True)
                  )
                )
              )
              (pconv2): Sequential(
                (0): Conv2d(512, 256, kernel_size=(1, 1), stride=(1, 1), bias=False)
                (1): BatchNorm2d(256, eps=1e-05, momentum=0.1, affine=True, track_running_stats=True)
              )
            )
          )
          (conv51): UnetResBlock(
            (inception): Inception3D(
              (p1_1): Conv2p5D(
                (pointwise): Conv3d(256, 64, kernel_size=(1, 1, 1), stride=(1, 1, 1))
                (depthwise_spatial): Conv3d(64, 64, kernel_size=(1, 1, 1), stride=(1, 1, 1), groups=64)
                (depthwise_temporal): Conv3d(64, 64, kernel_size=(1, 1, 1), stride=(1, 1, 1), groups=64)
              )
              (p2_1): Conv2p5D(
                (pointwise): Conv3d(256, 32, kernel_size=(1, 1, 1), stride=(1, 1, 1))
                (depthwise_spatial): Conv3d(32, 32, kernel_size=(1, 1, 1), stride=(1, 1, 1), groups=32)
                (depthwise_temporal): Conv3d(32, 32, kernel_size=(1, 1, 1), stride=(1, 1, 1), groups=32)
              )
              (p2_2): Conv2p5D(
                (pointwise): Conv3d(32, 64, kernel_size=(1, 1, 1), stride=(1, 1, 1))
                (depthwise_spatial): Conv3d(64, 64, kernel_size=(1, 3, 3), stride=(1, 1, 1), padding=(0, 1, 1), groups=64)
                (depthwise_temporal): Conv3d(64, 64, kernel_size=(3, 1, 1), stride=(1, 1, 1), padding=(1, 0, 0), groups=64)
              )
              (p3_1): Conv2p5D(
                (pointwise): Conv3d(256, 32, kernel_size=(1, 1, 1), stride=(1, 1, 1))
                (depthwise_spatial): Conv3d(32, 32, kernel_size=(1, 1, 1), stride=(1, 1, 1), groups=32)
                (depthwise_temporal): Conv3d(32, 32, kernel_size=(1, 1, 1), stride=(1, 1, 1), groups=32)
              )
              (p3_2): Conv2p5D(
                (pointwise): Conv3d(32, 64, kernel_size=(1, 1, 1), stride=(1, 1, 1))
                (depthwise_spatial): Conv3d(64, 64, kernel_size=(1, 5, 5), stride=(1, 1, 1), padding=(0, 2, 2), groups=64)
                (depthwise_temporal): Conv3d(64, 64, kernel_size=(5, 1, 1), stride=(1, 1, 1), padding=(2, 0, 0), groups=64)
              )
              (p4_1): MaxPool3d(kernel_size=3, stride=1, padding=1, dilation=1, ceil_mode=False)
              (p4_2): Conv2p5D(
                (pointwise): Conv3d(256, 64, kernel_size=(1, 1, 1), stride=(1, 1, 1))
                (depthwise_spatial): Conv3d(64, 64, kernel_size=(1, 1, 1), stride=(1, 1, 1), groups=64)
                (depthwise_temporal): Conv3d(64, 64, kernel_size=(1, 1, 1), stride=(1, 1, 1), groups=64)
              )
            )
            (norm1): BatchNorm3d(256, eps=1e-05, momentum=0.1, affine=True, track_running_stats=True)
            (act): LeakyReLU(negative_slope=0.01, inplace=True)
            (inception2): Convolution(
              (conv): Conv3d(256, 256, kernel_size=(3, 3, 3), stride=(1, 1, 1), padding=(1, 1, 1), bias=False)
            )
            (norm2): BatchNorm3d(256, eps=1e-05, momentum=0.1, affine=True, track_running_stats=True)
          )
          (conv52): UnetResBlock(
            (inception): Inception3D(
              (p1_1): Conv2p5D(
                (pointwise): Conv3d(256, 64, kernel_size=(1, 1, 1), stride=(1, 1, 1))
                (depthwise_spatial): Conv3d(64, 64, kernel_size=(1, 1, 1), stride=(1, 1, 1), groups=64)
                (depthwise_temporal): Conv3d(64, 64, kernel_size=(1, 1, 1), stride=(1, 1, 1), groups=64)
              )
              (p2_1): Conv2p5D(
                (pointwise): Conv3d(256, 32, kernel_size=(1, 1, 1), stride=(1, 1, 1))
                (depthwise_spatial): Conv3d(32, 32, kernel_size=(1, 1, 1), stride=(1, 1, 1), groups=32)
                (depthwise_temporal): Conv3d(32, 32, kernel_size=(1, 1, 1), stride=(1, 1, 1), groups=32)
              )
              (p2_2): Conv2p5D(
                (pointwise): Conv3d(32, 64, kernel_size=(1, 1, 1), stride=(1, 1, 1))
                (depthwise_spatial): Conv3d(64, 64, kernel_size=(1, 3, 3), stride=(1, 1, 1), padding=(0, 1, 1), groups=64)
                (depthwise_temporal): Conv3d(64, 64, kernel_size=(3, 1, 1), stride=(1, 1, 1), padding=(1, 0, 0), groups=64)
              )
              (p3_1): Conv2p5D(
                (pointwise): Conv3d(256, 32, kernel_size=(1, 1, 1), stride=(1, 1, 1))
                (depthwise_spatial): Conv3d(32, 32, kernel_size=(1, 1, 1), stride=(1, 1, 1), groups=32)
                (depthwise_temporal): Conv3d(32, 32, kernel_size=(1, 1, 1), stride=(1, 1, 1), groups=32)
              )
              (p3_2): Conv2p5D(
                (pointwise): Conv3d(32, 64, kernel_size=(1, 1, 1), stride=(1, 1, 1))
                (depthwise_spatial): Conv3d(64, 64, kernel_size=(1, 5, 5), stride=(1, 1, 1), padding=(0, 2, 2), groups=64)
                (depthwise_temporal): Conv3d(64, 64, kernel_size=(5, 1, 1), stride=(1, 1, 1), padding=(2, 0, 0), groups=64)
              )
              (p4_1): MaxPool3d(kernel_size=3, stride=1, padding=1, dilation=1, ceil_mode=False)
              (p4_2): Conv2p5D(
                (pointwise): Conv3d(256, 64, kernel_size=(1, 1, 1), stride=(1, 1, 1))
                (depthwise_spatial): Conv3d(64, 64, kernel_size=(1, 1, 1), stride=(1, 1, 1), groups=64)
                (depthwise_temporal): Conv3d(64, 64, kernel_size=(1, 1, 1), stride=(1, 1, 1), groups=64)
              )
            )
            (norm1): BatchNorm3d(256, eps=1e-05, momentum=0.1, affine=True, track_running_stats=True)
            (act): LeakyReLU(negative_slope=0.01, inplace=True)
            (inception2): Convolution(
              (conv): Conv3d(256, 256, kernel_size=(3, 3, 3), stride=(1, 1, 1), padding=(1, 1, 1), bias=False)
            )
            (norm2): BatchNorm3d(256, eps=1e-05, momentum=0.1, affine=True, track_running_stats=True)
          )
          (conv8): Sequential(
            (0): Dropout3d(p=0.1, inplace=False)
            (1): Conv3d(256, 256, kernel_size=(1, 1, 1), stride=(1, 1, 1))
          )
        )
        (2): TransformerBlock(
          (norm): LayerNorm((256,), eps=1e-05, elementwise_affine=True)
          (epa_block): EPA(
            (epa): LightCBAM(
              (simam_channel): simam_module(
                (activation): Sigmoid()
              )
              (ca_drop): Dropout(p=0.15, inplace=False)
              (simam_spatial): simam_spatial(
                (activation): Sigmoid()
              )
              (sa_drop): Dropout(p=0.15, inplace=False)
            )
            (mscb): MSCB(
              (pconv1): Sequential(
                (0): Conv2d(256, 512, kernel_size=(1, 1), stride=(1, 1), bias=False)
                (1): BatchNorm2d(512, eps=1e-05, momentum=0.1, affine=True, track_running_stats=True)
                (2): ReLU6(inplace=True)
              )
              (msdc): MSDC(
                (dwconvs): ModuleList(
                  (0): Sequential(
                    (0): Conv2d(512, 512, kernel_size=(1, 1), stride=(1, 1), groups=512, bias=False)
                    (1): BatchNorm2d(512, eps=1e-05, momentum=0.1, affine=True, track_running_stats=True)
                    (2): ReLU6(inplace=True)
                  )
                  (1): Sequential(
                    (0): Conv2d(512, 512, kernel_size=(3, 3), stride=(1, 1), padding=(1, 1), groups=512, bias=False)
                    (1): BatchNorm2d(512, eps=1e-05, momentum=0.1, affine=True, track_running_stats=True)
                    (2): ReLU6(inplace=True)
                  )
                  (2): Sequential(
                    (0): Conv2d(512, 512, kernel_size=(5, 5), stride=(1, 1), padding=(2, 2), groups=512, bias=False)
                    (1): BatchNorm2d(512, eps=1e-05, momentum=0.1, affine=True, track_running_stats=True)
                    (2): ReLU6(inplace=True)
                  )
                )
              )
              (pconv2): Sequential(
                (0): Conv2d(512, 256, kernel_size=(1, 1), stride=(1, 1), bias=False)
                (1): BatchNorm2d(256, eps=1e-05, momentum=0.1, affine=True, track_running_stats=True)
              )
            )
          )
          (conv51): UnetResBlock(
            (inception): Inception3D(
              (p1_1): Conv2p5D(
                (pointwise): Conv3d(256, 64, kernel_size=(1, 1, 1), stride=(1, 1, 1))
                (depthwise_spatial): Conv3d(64, 64, kernel_size=(1, 1, 1), stride=(1, 1, 1), groups=64)
                (depthwise_temporal): Conv3d(64, 64, kernel_size=(1, 1, 1), stride=(1, 1, 1), groups=64)
              )
              (p2_1): Conv2p5D(
                (pointwise): Conv3d(256, 32, kernel_size=(1, 1, 1), stride=(1, 1, 1))
                (depthwise_spatial): Conv3d(32, 32, kernel_size=(1, 1, 1), stride=(1, 1, 1), groups=32)
                (depthwise_temporal): Conv3d(32, 32, kernel_size=(1, 1, 1), stride=(1, 1, 1), groups=32)
              )
              (p2_2): Conv2p5D(
                (pointwise): Conv3d(32, 64, kernel_size=(1, 1, 1), stride=(1, 1, 1))
                (depthwise_spatial): Conv3d(64, 64, kernel_size=(1, 3, 3), stride=(1, 1, 1), padding=(0, 1, 1), groups=64)
                (depthwise_temporal): Conv3d(64, 64, kernel_size=(3, 1, 1), stride=(1, 1, 1), padding=(1, 0, 0), groups=64)
              )
              (p3_1): Conv2p5D(
                (pointwise): Conv3d(256, 32, kernel_size=(1, 1, 1), stride=(1, 1, 1))
                (depthwise_spatial): Conv3d(32, 32, kernel_size=(1, 1, 1), stride=(1, 1, 1), groups=32)
                (depthwise_temporal): Conv3d(32, 32, kernel_size=(1, 1, 1), stride=(1, 1, 1), groups=32)
              )
              (p3_2): Conv2p5D(
                (pointwise): Conv3d(32, 64, kernel_size=(1, 1, 1), stride=(1, 1, 1))
                (depthwise_spatial): Conv3d(64, 64, kernel_size=(1, 5, 5), stride=(1, 1, 1), padding=(0, 2, 2), groups=64)
                (depthwise_temporal): Conv3d(64, 64, kernel_size=(5, 1, 1), stride=(1, 1, 1), padding=(2, 0, 0), groups=64)
              )
              (p4_1): MaxPool3d(kernel_size=3, stride=1, padding=1, dilation=1, ceil_mode=False)
              (p4_2): Conv2p5D(
                (pointwise): Conv3d(256, 64, kernel_size=(1, 1, 1), stride=(1, 1, 1))
                (depthwise_spatial): Conv3d(64, 64, kernel_size=(1, 1, 1), stride=(1, 1, 1), groups=64)
                (depthwise_temporal): Conv3d(64, 64, kernel_size=(1, 1, 1), stride=(1, 1, 1), groups=64)
              )
            )
            (norm1): BatchNorm3d(256, eps=1e-05, momentum=0.1, affine=True, track_running_stats=True)
            (act): LeakyReLU(negative_slope=0.01, inplace=True)
            (inception2): Convolution(
              (conv): Conv3d(256, 256, kernel_size=(3, 3, 3), stride=(1, 1, 1), padding=(1, 1, 1), bias=False)
            )
            (norm2): BatchNorm3d(256, eps=1e-05, momentum=0.1, affine=True, track_running_stats=True)
          )
          (conv52): UnetResBlock(
            (inception): Inception3D(
              (p1_1): Conv2p5D(
                (pointwise): Conv3d(256, 64, kernel_size=(1, 1, 1), stride=(1, 1, 1))
                (depthwise_spatial): Conv3d(64, 64, kernel_size=(1, 1, 1), stride=(1, 1, 1), groups=64)
                (depthwise_temporal): Conv3d(64, 64, kernel_size=(1, 1, 1), stride=(1, 1, 1), groups=64)
              )
              (p2_1): Conv2p5D(
                (pointwise): Conv3d(256, 32, kernel_size=(1, 1, 1), stride=(1, 1, 1))
                (depthwise_spatial): Conv3d(32, 32, kernel_size=(1, 1, 1), stride=(1, 1, 1), groups=32)
                (depthwise_temporal): Conv3d(32, 32, kernel_size=(1, 1, 1), stride=(1, 1, 1), groups=32)
              )
              (p2_2): Conv2p5D(
                (pointwise): Conv3d(32, 64, kernel_size=(1, 1, 1), stride=(1, 1, 1))
                (depthwise_spatial): Conv3d(64, 64, kernel_size=(1, 3, 3), stride=(1, 1, 1), padding=(0, 1, 1), groups=64)
                (depthwise_temporal): Conv3d(64, 64, kernel_size=(3, 1, 1), stride=(1, 1, 1), padding=(1, 0, 0), groups=64)
              )
              (p3_1): Conv2p5D(
                (pointwise): Conv3d(256, 32, kernel_size=(1, 1, 1), stride=(1, 1, 1))
                (depthwise_spatial): Conv3d(32, 32, kernel_size=(1, 1, 1), stride=(1, 1, 1), groups=32)
                (depthwise_temporal): Conv3d(32, 32, kernel_size=(1, 1, 1), stride=(1, 1, 1), groups=32)
              )
              (p3_2): Conv2p5D(
                (pointwise): Conv3d(32, 64, kernel_size=(1, 1, 1), stride=(1, 1, 1))
                (depthwise_spatial): Conv3d(64, 64, kernel_size=(1, 5, 5), stride=(1, 1, 1), padding=(0, 2, 2), groups=64)
                (depthwise_temporal): Conv3d(64, 64, kernel_size=(5, 1, 1), stride=(1, 1, 1), padding=(2, 0, 0), groups=64)
              )
              (p4_1): MaxPool3d(kernel_size=3, stride=1, padding=1, dilation=1, ceil_mode=False)
              (p4_2): Conv2p5D(
                (pointwise): Conv3d(256, 64, kernel_size=(1, 1, 1), stride=(1, 1, 1))
                (depthwise_spatial): Conv3d(64, 64, kernel_size=(1, 1, 1), stride=(1, 1, 1), groups=64)
                (depthwise_temporal): Conv3d(64, 64, kernel_size=(1, 1, 1), stride=(1, 1, 1), groups=64)
              )
            )
            (norm1): BatchNorm3d(256, eps=1e-05, momentum=0.1, affine=True, track_running_stats=True)
            (act): LeakyReLU(negative_slope=0.01, inplace=True)
            (inception2): Convolution(
              (conv): Conv3d(256, 256, kernel_size=(3, 3, 3), stride=(1, 1, 1), padding=(1, 1, 1), bias=False)
            )
            (norm2): BatchNorm3d(256, eps=1e-05, momentum=0.1, affine=True, track_running_stats=True)
          )
          (conv8): Sequential(
            (0): Dropout3d(p=0.1, inplace=False)
            (1): Conv3d(256, 256, kernel_size=(1, 1, 1), stride=(1, 1, 1))
          )
        )
      )
    )
  )
  (encoder1): UnetResBlock(
    (inception): Inception3D(
      (p1_1): Conv2p5D(
        (pointwise): Conv3d(1, 4, kernel_size=(1, 1, 1), stride=(1, 1, 1))
        (depthwise_spatial): Conv3d(4, 4, kernel_size=(1, 1, 1), stride=(1, 1, 1), groups=4)
        (depthwise_temporal): Conv3d(4, 4, kernel_size=(1, 1, 1), stride=(1, 1, 1), groups=4)
      )
      (p2_1): Conv2p5D(
        (pointwise): Conv3d(1, 2, kernel_size=(1, 1, 1), stride=(1, 1, 1))
        (depthwise_spatial): Conv3d(2, 2, kernel_size=(1, 1, 1), stride=(1, 1, 1), groups=2)
        (depthwise_temporal): Conv3d(2, 2, kernel_size=(1, 1, 1), stride=(1, 1, 1), groups=2)
      )
      (p2_2): Conv2p5D(
        (pointwise): Conv3d(2, 4, kernel_size=(1, 1, 1), stride=(1, 1, 1))
        (depthwise_spatial): Conv3d(4, 4, kernel_size=(1, 3, 3), stride=(1, 1, 1), padding=(0, 1, 1), groups=4)
        (depthwise_temporal): Conv3d(4, 4, kernel_size=(3, 1, 1), stride=(1, 1, 1), padding=(1, 0, 0), groups=4)
      )
      (p3_1): Conv2p5D(
        (pointwise): Conv3d(1, 2, kernel_size=(1, 1, 1), stride=(1, 1, 1))
        (depthwise_spatial): Conv3d(2, 2, kernel_size=(1, 1, 1), stride=(1, 1, 1), groups=2)
        (depthwise_temporal): Conv3d(2, 2, kernel_size=(1, 1, 1), stride=(1, 1, 1), groups=2)
      )
      (p3_2): Conv2p5D(
        (pointwise): Conv3d(2, 4, kernel_size=(1, 1, 1), stride=(1, 1, 1))
        (depthwise_spatial): Conv3d(4, 4, kernel_size=(1, 5, 5), stride=(1, 1, 1), padding=(0, 2, 2), groups=4)
        (depthwise_temporal): Conv3d(4, 4, kernel_size=(5, 1, 1), stride=(1, 1, 1), padding=(2, 0, 0), groups=4)
      )
      (p4_1): MaxPool3d(kernel_size=3, stride=1, padding=1, dilation=1, ceil_mode=False)
      (p4_2): Conv2p5D(
        (pointwise): Conv3d(1, 4, kernel_size=(1, 1, 1), stride=(1, 1, 1))
        (depthwise_spatial): Conv3d(4, 4, kernel_size=(1, 1, 1), stride=(1, 1, 1), groups=4)
        (depthwise_temporal): Conv3d(4, 4, kernel_size=(1, 1, 1), stride=(1, 1, 1), groups=4)
      )
    )
    (norm1): InstanceNorm3d(16, eps=1e-05, momentum=0.1, affine=False, track_running_stats=False)
    (act): LeakyReLU(negative_slope=0.01, inplace=True)
    (inception2): Convolution(
      (conv): Conv3d(16, 16, kernel_size=(3, 3, 3), stride=(1, 1, 1), padding=(1, 1, 1), bias=False)
    )
    (norm2): InstanceNorm3d(16, eps=1e-05, momentum=0.1, affine=False, track_running_stats=False)
    (res_inception): Inception3D(
      (p1_1): Conv2p5D(
        (pointwise): Conv3d(1, 4, kernel_size=(1, 1, 1), stride=(1, 1, 1))
        (depthwise_spatial): Conv3d(4, 4, kernel_size=(1, 1, 1), stride=(1, 1, 1), groups=4)
        (depthwise_temporal): Conv3d(4, 4, kernel_size=(1, 1, 1), stride=(1, 1, 1), groups=4)
      )
      (p2_1): Conv2p5D(
        (pointwise): Conv3d(1, 2, kernel_size=(1, 1, 1), stride=(1, 1, 1))
        (depthwise_spatial): Conv3d(2, 2, kernel_size=(1, 1, 1), stride=(1, 1, 1), groups=2)
        (depthwise_temporal): Conv3d(2, 2, kernel_size=(1, 1, 1), stride=(1, 1, 1), groups=2)
      )
      (p2_2): Conv2p5D(
        (pointwise): Conv3d(2, 4, kernel_size=(1, 1, 1), stride=(1, 1, 1))
        (depthwise_spatial): Conv3d(4, 4, kernel_size=(1, 3, 3), stride=(1, 1, 1), padding=(0, 1, 1), groups=4)
        (depthwise_temporal): Conv3d(4, 4, kernel_size=(3, 1, 1), stride=(1, 1, 1), padding=(1, 0, 0), groups=4)
      )
      (p3_1): Conv2p5D(
        (pointwise): Conv3d(1, 2, kernel_size=(1, 1, 1), stride=(1, 1, 1))
        (depthwise_spatial): Conv3d(2, 2, kernel_size=(1, 1, 1), stride=(1, 1, 1), groups=2)
        (depthwise_temporal): Conv3d(2, 2, kernel_size=(1, 1, 1), stride=(1, 1, 1), groups=2)
      )
      (p3_2): Conv2p5D(
        (pointwise): Conv3d(2, 4, kernel_size=(1, 1, 1), stride=(1, 1, 1))
        (depthwise_spatial): Conv3d(4, 4, kernel_size=(1, 5, 5), stride=(1, 1, 1), padding=(0, 2, 2), groups=4)
        (depthwise_temporal): Conv3d(4, 4, kernel_size=(5, 1, 1), stride=(1, 1, 1), padding=(2, 0, 0), groups=4)
      )
      (p4_1): MaxPool3d(kernel_size=3, stride=1, padding=1, dilation=1, ceil_mode=False)
      (p4_2): Conv2p5D(
        (pointwise): Conv3d(1, 4, kernel_size=(1, 1, 1), stride=(1, 1, 1))
        (depthwise_spatial): Conv3d(4, 4, kernel_size=(1, 1, 1), stride=(1, 1, 1), groups=4)
        (depthwise_temporal): Conv3d(4, 4, kernel_size=(1, 1, 1), stride=(1, 1, 1), groups=4)
      )
    )
    (norm_res): InstanceNorm3d(16, eps=1e-05, momentum=0.1, affine=False, track_running_stats=False)
  )
  (decoder5): UnetrUpBlock(
    (transp_conv): Convolution(
      (conv): ConvTranspose3d(256, 128, kernel_size=(2, 2, 2), stride=(2, 2, 2), bias=False)
    )
    (decoder_block): ModuleList(
      (0): Sequential(
        (0): TransformerBlock(
          (norm): LayerNorm((128,), eps=1e-05, elementwise_affine=True)
          (epa_block): EPA(
            (epa): LightCBAM(
              (simam_channel): simam_module(
                (activation): Sigmoid()
              )
              (ca_drop): Dropout(p=0.15, inplace=False)
              (simam_spatial): simam_spatial(
                (activation): Sigmoid()
              )
              (sa_drop): Dropout(p=0.15, inplace=False)
            )
            (mscb): MSCB(
              (pconv1): Sequential(
                (0): Conv2d(128, 256, kernel_size=(1, 1), stride=(1, 1), bias=False)
                (1): BatchNorm2d(256, eps=1e-05, momentum=0.1, affine=True, track_running_stats=True)
                (2): ReLU6(inplace=True)
              )
              (msdc): MSDC(
                (dwconvs): ModuleList(
                  (0): Sequential(
                    (0): Conv2d(256, 256, kernel_size=(1, 1), stride=(1, 1), groups=256, bias=False)
                    (1): BatchNorm2d(256, eps=1e-05, momentum=0.1, affine=True, track_running_stats=True)
                    (2): ReLU6(inplace=True)
                  )
                  (1): Sequential(
                    (0): Conv2d(256, 256, kernel_size=(3, 3), stride=(1, 1), padding=(1, 1), groups=256, bias=False)
                    (1): BatchNorm2d(256, eps=1e-05, momentum=0.1, affine=True, track_running_stats=True)
                    (2): ReLU6(inplace=True)
                  )
                  (2): Sequential(
                    (0): Conv2d(256, 256, kernel_size=(5, 5), stride=(1, 1), padding=(2, 2), groups=256, bias=False)
                    (1): BatchNorm2d(256, eps=1e-05, momentum=0.1, affine=True, track_running_stats=True)
                    (2): ReLU6(inplace=True)
                  )
                )
              )
              (pconv2): Sequential(
                (0): Conv2d(256, 128, kernel_size=(1, 1), stride=(1, 1), bias=False)
                (1): BatchNorm2d(128, eps=1e-05, momentum=0.1, affine=True, track_running_stats=True)
              )
            )
          )
          (conv51): UnetResBlock(
            (inception): Inception3D(
              (p1_1): Conv2p5D(
                (pointwise): Conv3d(128, 32, kernel_size=(1, 1, 1), stride=(1, 1, 1))
                (depthwise_spatial): Conv3d(32, 32, kernel_size=(1, 1, 1), stride=(1, 1, 1), groups=32)
                (depthwise_temporal): Conv3d(32, 32, kernel_size=(1, 1, 1), stride=(1, 1, 1), groups=32)
              )
              (p2_1): Conv2p5D(
                (pointwise): Conv3d(128, 16, kernel_size=(1, 1, 1), stride=(1, 1, 1))
                (depthwise_spatial): Conv3d(16, 16, kernel_size=(1, 1, 1), stride=(1, 1, 1), groups=16)
                (depthwise_temporal): Conv3d(16, 16, kernel_size=(1, 1, 1), stride=(1, 1, 1), groups=16)
              )
              (p2_2): Conv2p5D(
                (pointwise): Conv3d(16, 32, kernel_size=(1, 1, 1), stride=(1, 1, 1))
                (depthwise_spatial): Conv3d(32, 32, kernel_size=(1, 3, 3), stride=(1, 1, 1), padding=(0, 1, 1), groups=32)
                (depthwise_temporal): Conv3d(32, 32, kernel_size=(3, 1, 1), stride=(1, 1, 1), padding=(1, 0, 0), groups=32)
              )
              (p3_1): Conv2p5D(
                (pointwise): Conv3d(128, 16, kernel_size=(1, 1, 1), stride=(1, 1, 1))
                (depthwise_spatial): Conv3d(16, 16, kernel_size=(1, 1, 1), stride=(1, 1, 1), groups=16)
                (depthwise_temporal): Conv3d(16, 16, kernel_size=(1, 1, 1), stride=(1, 1, 1), groups=16)
              )
              (p3_2): Conv2p5D(
                (pointwise): Conv3d(16, 32, kernel_size=(1, 1, 1), stride=(1, 1, 1))
                (depthwise_spatial): Conv3d(32, 32, kernel_size=(1, 5, 5), stride=(1, 1, 1), padding=(0, 2, 2), groups=32)
                (depthwise_temporal): Conv3d(32, 32, kernel_size=(5, 1, 1), stride=(1, 1, 1), padding=(2, 0, 0), groups=32)
              )
              (p4_1): MaxPool3d(kernel_size=3, stride=1, padding=1, dilation=1, ceil_mode=False)
              (p4_2): Conv2p5D(
                (pointwise): Conv3d(128, 32, kernel_size=(1, 1, 1), stride=(1, 1, 1))
                (depthwise_spatial): Conv3d(32, 32, kernel_size=(1, 1, 1), stride=(1, 1, 1), groups=32)
                (depthwise_temporal): Conv3d(32, 32, kernel_size=(1, 1, 1), stride=(1, 1, 1), groups=32)
              )
            )
            (norm1): BatchNorm3d(128, eps=1e-05, momentum=0.1, affine=True, track_running_stats=True)
            (act): LeakyReLU(negative_slope=0.01, inplace=True)
            (inception2): Convolution(
              (conv): Conv3d(128, 128, kernel_size=(3, 3, 3), stride=(1, 1, 1), padding=(1, 1, 1), bias=False)
            )
            (norm2): BatchNorm3d(128, eps=1e-05, momentum=0.1, affine=True, track_running_stats=True)
          )
          (conv52): UnetResBlock(
            (inception): Inception3D(
              (p1_1): Conv2p5D(
                (pointwise): Conv3d(128, 32, kernel_size=(1, 1, 1), stride=(1, 1, 1))
                (depthwise_spatial): Conv3d(32, 32, kernel_size=(1, 1, 1), stride=(1, 1, 1), groups=32)
                (depthwise_temporal): Conv3d(32, 32, kernel_size=(1, 1, 1), stride=(1, 1, 1), groups=32)
              )
              (p2_1): Conv2p5D(
                (pointwise): Conv3d(128, 16, kernel_size=(1, 1, 1), stride=(1, 1, 1))
                (depthwise_spatial): Conv3d(16, 16, kernel_size=(1, 1, 1), stride=(1, 1, 1), groups=16)
                (depthwise_temporal): Conv3d(16, 16, kernel_size=(1, 1, 1), stride=(1, 1, 1), groups=16)
              )
              (p2_2): Conv2p5D(
                (pointwise): Conv3d(16, 32, kernel_size=(1, 1, 1), stride=(1, 1, 1))
                (depthwise_spatial): Conv3d(32, 32, kernel_size=(1, 3, 3), stride=(1, 1, 1), padding=(0, 1, 1), groups=32)
                (depthwise_temporal): Conv3d(32, 32, kernel_size=(3, 1, 1), stride=(1, 1, 1), padding=(1, 0, 0), groups=32)
              )
              (p3_1): Conv2p5D(
                (pointwise): Conv3d(128, 16, kernel_size=(1, 1, 1), stride=(1, 1, 1))
                (depthwise_spatial): Conv3d(16, 16, kernel_size=(1, 1, 1), stride=(1, 1, 1), groups=16)
                (depthwise_temporal): Conv3d(16, 16, kernel_size=(1, 1, 1), stride=(1, 1, 1), groups=16)
              )
              (p3_2): Conv2p5D(
                (pointwise): Conv3d(16, 32, kernel_size=(1, 1, 1), stride=(1, 1, 1))
                (depthwise_spatial): Conv3d(32, 32, kernel_size=(1, 5, 5), stride=(1, 1, 1), padding=(0, 2, 2), groups=32)
                (depthwise_temporal): Conv3d(32, 32, kernel_size=(5, 1, 1), stride=(1, 1, 1), padding=(2, 0, 0), groups=32)
              )
              (p4_1): MaxPool3d(kernel_size=3, stride=1, padding=1, dilation=1, ceil_mode=False)
              (p4_2): Conv2p5D(
                (pointwise): Conv3d(128, 32, kernel_size=(1, 1, 1), stride=(1, 1, 1))
                (depthwise_spatial): Conv3d(32, 32, kernel_size=(1, 1, 1), stride=(1, 1, 1), groups=32)
                (depthwise_temporal): Conv3d(32, 32, kernel_size=(1, 1, 1), stride=(1, 1, 1), groups=32)
              )
            )
            (norm1): BatchNorm3d(128, eps=1e-05, momentum=0.1, affine=True, track_running_stats=True)
            (act): LeakyReLU(negative_slope=0.01, inplace=True)
            (inception2): Convolution(
              (conv): Conv3d(128, 128, kernel_size=(3, 3, 3), stride=(1, 1, 1), padding=(1, 1, 1), bias=False)
            )
            (norm2): BatchNorm3d(128, eps=1e-05, momentum=0.1, affine=True, track_running_stats=True)
          )
          (conv8): Sequential(
            (0): Dropout3d(p=0.1, inplace=False)
            (1): Conv3d(128, 128, kernel_size=(1, 1, 1), stride=(1, 1, 1))
          )
        )
        (1): TransformerBlock(
          (norm): LayerNorm((128,), eps=1e-05, elementwise_affine=True)
          (epa_block): EPA(
            (epa): LightCBAM(
              (simam_channel): simam_module(
                (activation): Sigmoid()
              )
              (ca_drop): Dropout(p=0.15, inplace=False)
              (simam_spatial): simam_spatial(
                (activation): Sigmoid()
              )
              (sa_drop): Dropout(p=0.15, inplace=False)
            )
            (mscb): MSCB(
              (pconv1): Sequential(
                (0): Conv2d(128, 256, kernel_size=(1, 1), stride=(1, 1), bias=False)
                (1): BatchNorm2d(256, eps=1e-05, momentum=0.1, affine=True, track_running_stats=True)
                (2): ReLU6(inplace=True)
              )
              (msdc): MSDC(
                (dwconvs): ModuleList(
                  (0): Sequential(
                    (0): Conv2d(256, 256, kernel_size=(1, 1), stride=(1, 1), groups=256, bias=False)
                    (1): BatchNorm2d(256, eps=1e-05, momentum=0.1, affine=True, track_running_stats=True)
                    (2): ReLU6(inplace=True)
                  )
                  (1): Sequential(
                    (0): Conv2d(256, 256, kernel_size=(3, 3), stride=(1, 1), padding=(1, 1), groups=256, bias=False)
                    (1): BatchNorm2d(256, eps=1e-05, momentum=0.1, affine=True, track_running_stats=True)
                    (2): ReLU6(inplace=True)
                  )
                  (2): Sequential(
                    (0): Conv2d(256, 256, kernel_size=(5, 5), stride=(1, 1), padding=(2, 2), groups=256, bias=False)
                    (1): BatchNorm2d(256, eps=1e-05, momentum=0.1, affine=True, track_running_stats=True)
                    (2): ReLU6(inplace=True)
                  )
                )
              )
              (pconv2): Sequential(
                (0): Conv2d(256, 128, kernel_size=(1, 1), stride=(1, 1), bias=False)
                (1): BatchNorm2d(128, eps=1e-05, momentum=0.1, affine=True, track_running_stats=True)
              )
            )
          )
          (conv51): UnetResBlock(
            (inception): Inception3D(
              (p1_1): Conv2p5D(
                (pointwise): Conv3d(128, 32, kernel_size=(1, 1, 1), stride=(1, 1, 1))
                (depthwise_spatial): Conv3d(32, 32, kernel_size=(1, 1, 1), stride=(1, 1, 1), groups=32)
                (depthwise_temporal): Conv3d(32, 32, kernel_size=(1, 1, 1), stride=(1, 1, 1), groups=32)
              )
              (p2_1): Conv2p5D(
                (pointwise): Conv3d(128, 16, kernel_size=(1, 1, 1), stride=(1, 1, 1))
                (depthwise_spatial): Conv3d(16, 16, kernel_size=(1, 1, 1), stride=(1, 1, 1), groups=16)
                (depthwise_temporal): Conv3d(16, 16, kernel_size=(1, 1, 1), stride=(1, 1, 1), groups=16)
              )
              (p2_2): Conv2p5D(
                (pointwise): Conv3d(16, 32, kernel_size=(1, 1, 1), stride=(1, 1, 1))
                (depthwise_spatial): Conv3d(32, 32, kernel_size=(1, 3, 3), stride=(1, 1, 1), padding=(0, 1, 1), groups=32)
                (depthwise_temporal): Conv3d(32, 32, kernel_size=(3, 1, 1), stride=(1, 1, 1), padding=(1, 0, 0), groups=32)
              )
              (p3_1): Conv2p5D(
                (pointwise): Conv3d(128, 16, kernel_size=(1, 1, 1), stride=(1, 1, 1))
                (depthwise_spatial): Conv3d(16, 16, kernel_size=(1, 1, 1), stride=(1, 1, 1), groups=16)
                (depthwise_temporal): Conv3d(16, 16, kernel_size=(1, 1, 1), stride=(1, 1, 1), groups=16)
              )
              (p3_2): Conv2p5D(
                (pointwise): Conv3d(16, 32, kernel_size=(1, 1, 1), stride=(1, 1, 1))
                (depthwise_spatial): Conv3d(32, 32, kernel_size=(1, 5, 5), stride=(1, 1, 1), padding=(0, 2, 2), groups=32)
                (depthwise_temporal): Conv3d(32, 32, kernel_size=(5, 1, 1), stride=(1, 1, 1), padding=(2, 0, 0), groups=32)
              )
              (p4_1): MaxPool3d(kernel_size=3, stride=1, padding=1, dilation=1, ceil_mode=False)
              (p4_2): Conv2p5D(
                (pointwise): Conv3d(128, 32, kernel_size=(1, 1, 1), stride=(1, 1, 1))
                (depthwise_spatial): Conv3d(32, 32, kernel_size=(1, 1, 1), stride=(1, 1, 1), groups=32)
                (depthwise_temporal): Conv3d(32, 32, kernel_size=(1, 1, 1), stride=(1, 1, 1), groups=32)
              )
            )
            (norm1): BatchNorm3d(128, eps=1e-05, momentum=0.1, affine=True, track_running_stats=True)
            (act): LeakyReLU(negative_slope=0.01, inplace=True)
            (inception2): Convolution(
              (conv): Conv3d(128, 128, kernel_size=(3, 3, 3), stride=(1, 1, 1), padding=(1, 1, 1), bias=False)
            )
            (norm2): BatchNorm3d(128, eps=1e-05, momentum=0.1, affine=True, track_running_stats=True)
          )
          (conv52): UnetResBlock(
            (inception): Inception3D(
              (p1_1): Conv2p5D(
                (pointwise): Conv3d(128, 32, kernel_size=(1, 1, 1), stride=(1, 1, 1))
                (depthwise_spatial): Conv3d(32, 32, kernel_size=(1, 1, 1), stride=(1, 1, 1), groups=32)
                (depthwise_temporal): Conv3d(32, 32, kernel_size=(1, 1, 1), stride=(1, 1, 1), groups=32)
              )
              (p2_1): Conv2p5D(
                (pointwise): Conv3d(128, 16, kernel_size=(1, 1, 1), stride=(1, 1, 1))
                (depthwise_spatial): Conv3d(16, 16, kernel_size=(1, 1, 1), stride=(1, 1, 1), groups=16)
                (depthwise_temporal): Conv3d(16, 16, kernel_size=(1, 1, 1), stride=(1, 1, 1), groups=16)
              )
              (p2_2): Conv2p5D(
                (pointwise): Conv3d(16, 32, kernel_size=(1, 1, 1), stride=(1, 1, 1))
                (depthwise_spatial): Conv3d(32, 32, kernel_size=(1, 3, 3), stride=(1, 1, 1), padding=(0, 1, 1), groups=32)
                (depthwise_temporal): Conv3d(32, 32, kernel_size=(3, 1, 1), stride=(1, 1, 1), padding=(1, 0, 0), groups=32)
              )
              (p3_1): Conv2p5D(
                (pointwise): Conv3d(128, 16, kernel_size=(1, 1, 1), stride=(1, 1, 1))
                (depthwise_spatial): Conv3d(16, 16, kernel_size=(1, 1, 1), stride=(1, 1, 1), groups=16)
                (depthwise_temporal): Conv3d(16, 16, kernel_size=(1, 1, 1), stride=(1, 1, 1), groups=16)
              )
              (p3_2): Conv2p5D(
                (pointwise): Conv3d(16, 32, kernel_size=(1, 1, 1), stride=(1, 1, 1))
                (depthwise_spatial): Conv3d(32, 32, kernel_size=(1, 5, 5), stride=(1, 1, 1), padding=(0, 2, 2), groups=32)
                (depthwise_temporal): Conv3d(32, 32, kernel_size=(5, 1, 1), stride=(1, 1, 1), padding=(2, 0, 0), groups=32)
              )
              (p4_1): MaxPool3d(kernel_size=3, stride=1, padding=1, dilation=1, ceil_mode=False)
              (p4_2): Conv2p5D(
                (pointwise): Conv3d(128, 32, kernel_size=(1, 1, 1), stride=(1, 1, 1))
                (depthwise_spatial): Conv3d(32, 32, kernel_size=(1, 1, 1), stride=(1, 1, 1), groups=32)
                (depthwise_temporal): Conv3d(32, 32, kernel_size=(1, 1, 1), stride=(1, 1, 1), groups=32)
              )
            )
            (norm1): BatchNorm3d(128, eps=1e-05, momentum=0.1, affine=True, track_running_stats=True)
            (act): LeakyReLU(negative_slope=0.01, inplace=True)
            (inception2): Convolution(
              (conv): Conv3d(128, 128, kernel_size=(3, 3, 3), stride=(1, 1, 1), padding=(1, 1, 1), bias=False)
            )
            (norm2): BatchNorm3d(128, eps=1e-05, momentum=0.1, affine=True, track_running_stats=True)
          )
          (conv8): Sequential(
            (0): Dropout3d(p=0.1, inplace=False)
            (1): Conv3d(128, 128, kernel_size=(1, 1, 1), stride=(1, 1, 1))
          )
        )
        (2): TransformerBlock(
          (norm): LayerNorm((128,), eps=1e-05, elementwise_affine=True)
          (epa_block): EPA(
            (epa): LightCBAM(
              (simam_channel): simam_module(
                (activation): Sigmoid()
              )
              (ca_drop): Dropout(p=0.15, inplace=False)
              (simam_spatial): simam_spatial(
                (activation): Sigmoid()
              )
              (sa_drop): Dropout(p=0.15, inplace=False)
            )
            (mscb): MSCB(
              (pconv1): Sequential(
                (0): Conv2d(128, 256, kernel_size=(1, 1), stride=(1, 1), bias=False)
                (1): BatchNorm2d(256, eps=1e-05, momentum=0.1, affine=True, track_running_stats=True)
                (2): ReLU6(inplace=True)
              )
              (msdc): MSDC(
                (dwconvs): ModuleList(
                  (0): Sequential(
                    (0): Conv2d(256, 256, kernel_size=(1, 1), stride=(1, 1), groups=256, bias=False)
                    (1): BatchNorm2d(256, eps=1e-05, momentum=0.1, affine=True, track_running_stats=True)
                    (2): ReLU6(inplace=True)
                  )
                  (1): Sequential(
                    (0): Conv2d(256, 256, kernel_size=(3, 3), stride=(1, 1), padding=(1, 1), groups=256, bias=False)
                    (1): BatchNorm2d(256, eps=1e-05, momentum=0.1, affine=True, track_running_stats=True)
                    (2): ReLU6(inplace=True)
                  )
                  (2): Sequential(
                    (0): Conv2d(256, 256, kernel_size=(5, 5), stride=(1, 1), padding=(2, 2), groups=256, bias=False)
                    (1): BatchNorm2d(256, eps=1e-05, momentum=0.1, affine=True, track_running_stats=True)
                    (2): ReLU6(inplace=True)
                  )
                )
              )
              (pconv2): Sequential(
                (0): Conv2d(256, 128, kernel_size=(1, 1), stride=(1, 1), bias=False)
                (1): BatchNorm2d(128, eps=1e-05, momentum=0.1, affine=True, track_running_stats=True)
              )
            )
          )
          (conv51): UnetResBlock(
            (inception): Inception3D(
              (p1_1): Conv2p5D(
                (pointwise): Conv3d(128, 32, kernel_size=(1, 1, 1), stride=(1, 1, 1))
                (depthwise_spatial): Conv3d(32, 32, kernel_size=(1, 1, 1), stride=(1, 1, 1), groups=32)
                (depthwise_temporal): Conv3d(32, 32, kernel_size=(1, 1, 1), stride=(1, 1, 1), groups=32)
              )
              (p2_1): Conv2p5D(
                (pointwise): Conv3d(128, 16, kernel_size=(1, 1, 1), stride=(1, 1, 1))
                (depthwise_spatial): Conv3d(16, 16, kernel_size=(1, 1, 1), stride=(1, 1, 1), groups=16)
                (depthwise_temporal): Conv3d(16, 16, kernel_size=(1, 1, 1), stride=(1, 1, 1), groups=16)
              )
              (p2_2): Conv2p5D(
                (pointwise): Conv3d(16, 32, kernel_size=(1, 1, 1), stride=(1, 1, 1))
                (depthwise_spatial): Conv3d(32, 32, kernel_size=(1, 3, 3), stride=(1, 1, 1), padding=(0, 1, 1), groups=32)
                (depthwise_temporal): Conv3d(32, 32, kernel_size=(3, 1, 1), stride=(1, 1, 1), padding=(1, 0, 0), groups=32)
              )
              (p3_1): Conv2p5D(
                (pointwise): Conv3d(128, 16, kernel_size=(1, 1, 1), stride=(1, 1, 1))
                (depthwise_spatial): Conv3d(16, 16, kernel_size=(1, 1, 1), stride=(1, 1, 1), groups=16)
                (depthwise_temporal): Conv3d(16, 16, kernel_size=(1, 1, 1), stride=(1, 1, 1), groups=16)
              )
              (p3_2): Conv2p5D(
                (pointwise): Conv3d(16, 32, kernel_size=(1, 1, 1), stride=(1, 1, 1))
                (depthwise_spatial): Conv3d(32, 32, kernel_size=(1, 5, 5), stride=(1, 1, 1), padding=(0, 2, 2), groups=32)
                (depthwise_temporal): Conv3d(32, 32, kernel_size=(5, 1, 1), stride=(1, 1, 1), padding=(2, 0, 0), groups=32)
              )
              (p4_1): MaxPool3d(kernel_size=3, stride=1, padding=1, dilation=1, ceil_mode=False)
              (p4_2): Conv2p5D(
                (pointwise): Conv3d(128, 32, kernel_size=(1, 1, 1), stride=(1, 1, 1))
                (depthwise_spatial): Conv3d(32, 32, kernel_size=(1, 1, 1), stride=(1, 1, 1), groups=32)
                (depthwise_temporal): Conv3d(32, 32, kernel_size=(1, 1, 1), stride=(1, 1, 1), groups=32)
              )
            )
            (norm1): BatchNorm3d(128, eps=1e-05, momentum=0.1, affine=True, track_running_stats=True)
            (act): LeakyReLU(negative_slope=0.01, inplace=True)
            (inception2): Convolution(
              (conv): Conv3d(128, 128, kernel_size=(3, 3, 3), stride=(1, 1, 1), padding=(1, 1, 1), bias=False)
            )
            (norm2): BatchNorm3d(128, eps=1e-05, momentum=0.1, affine=True, track_running_stats=True)
          )
          (conv52): UnetResBlock(
            (inception): Inception3D(
              (p1_1): Conv2p5D(
                (pointwise): Conv3d(128, 32, kernel_size=(1, 1, 1), stride=(1, 1, 1))
                (depthwise_spatial): Conv3d(32, 32, kernel_size=(1, 1, 1), stride=(1, 1, 1), groups=32)
                (depthwise_temporal): Conv3d(32, 32, kernel_size=(1, 1, 1), stride=(1, 1, 1), groups=32)
              )
              (p2_1): Conv2p5D(
                (pointwise): Conv3d(128, 16, kernel_size=(1, 1, 1), stride=(1, 1, 1))
                (depthwise_spatial): Conv3d(16, 16, kernel_size=(1, 1, 1), stride=(1, 1, 1), groups=16)
                (depthwise_temporal): Conv3d(16, 16, kernel_size=(1, 1, 1), stride=(1, 1, 1), groups=16)
              )
              (p2_2): Conv2p5D(
                (pointwise): Conv3d(16, 32, kernel_size=(1, 1, 1), stride=(1, 1, 1))
                (depthwise_spatial): Conv3d(32, 32, kernel_size=(1, 3, 3), stride=(1, 1, 1), padding=(0, 1, 1), groups=32)
                (depthwise_temporal): Conv3d(32, 32, kernel_size=(3, 1, 1), stride=(1, 1, 1), padding=(1, 0, 0), groups=32)
              )
              (p3_1): Conv2p5D(
                (pointwise): Conv3d(128, 16, kernel_size=(1, 1, 1), stride=(1, 1, 1))
                (depthwise_spatial): Conv3d(16, 16, kernel_size=(1, 1, 1), stride=(1, 1, 1), groups=16)
                (depthwise_temporal): Conv3d(16, 16, kernel_size=(1, 1, 1), stride=(1, 1, 1), groups=16)
              )
              (p3_2): Conv2p5D(
                (pointwise): Conv3d(16, 32, kernel_size=(1, 1, 1), stride=(1, 1, 1))
                (depthwise_spatial): Conv3d(32, 32, kernel_size=(1, 5, 5), stride=(1, 1, 1), padding=(0, 2, 2), groups=32)
                (depthwise_temporal): Conv3d(32, 32, kernel_size=(5, 1, 1), stride=(1, 1, 1), padding=(2, 0, 0), groups=32)
              )
              (p4_1): MaxPool3d(kernel_size=3, stride=1, padding=1, dilation=1, ceil_mode=False)
              (p4_2): Conv2p5D(
                (pointwise): Conv3d(128, 32, kernel_size=(1, 1, 1), stride=(1, 1, 1))
                (depthwise_spatial): Conv3d(32, 32, kernel_size=(1, 1, 1), stride=(1, 1, 1), groups=32)
                (depthwise_temporal): Conv3d(32, 32, kernel_size=(1, 1, 1), stride=(1, 1, 1), groups=32)
              )
            )
            (norm1): BatchNorm3d(128, eps=1e-05, momentum=0.1, affine=True, track_running_stats=True)
            (act): LeakyReLU(negative_slope=0.01, inplace=True)
            (inception2): Convolution(
              (conv): Conv3d(128, 128, kernel_size=(3, 3, 3), stride=(1, 1, 1), padding=(1, 1, 1), bias=False)
            )
            (norm2): BatchNorm3d(128, eps=1e-05, momentum=0.1, affine=True, track_running_stats=True)
          )
          (conv8): Sequential(
            (0): Dropout3d(p=0.1, inplace=False)
            (1): Conv3d(128, 128, kernel_size=(1, 1, 1), stride=(1, 1, 1))
          )
        )
      )
    )
  )
  (decoder4): UnetrUpBlock(
    (transp_conv): Convolution(
      (conv): ConvTranspose3d(128, 64, kernel_size=(2, 2, 2), stride=(2, 2, 2), bias=False)
    )
    (decoder_block): ModuleList(
      (0): Sequential(
        (0): TransformerBlock(
          (norm): LayerNorm((64,), eps=1e-05, elementwise_affine=True)
          (epa_block): EPA(
            (epa): LightCBAM(
              (simam_channel): simam_module(
                (activation): Sigmoid()
              )
              (ca_drop): Dropout(p=0.15, inplace=False)
              (simam_spatial): simam_spatial(
                (activation): Sigmoid()
              )
              (sa_drop): Dropout(p=0.15, inplace=False)
            )
            (mscb): MSCB(
              (pconv1): Sequential(
                (0): Conv2d(64, 128, kernel_size=(1, 1), stride=(1, 1), bias=False)
                (1): BatchNorm2d(128, eps=1e-05, momentum=0.1, affine=True, track_running_stats=True)
                (2): ReLU6(inplace=True)
              )
              (msdc): MSDC(
                (dwconvs): ModuleList(
                  (0): Sequential(
                    (0): Conv2d(128, 128, kernel_size=(1, 1), stride=(1, 1), groups=128, bias=False)
                    (1): BatchNorm2d(128, eps=1e-05, momentum=0.1, affine=True, track_running_stats=True)
                    (2): ReLU6(inplace=True)
                  )
                  (1): Sequential(
                    (0): Conv2d(128, 128, kernel_size=(3, 3), stride=(1, 1), padding=(1, 1), groups=128, bias=False)
                    (1): BatchNorm2d(128, eps=1e-05, momentum=0.1, affine=True, track_running_stats=True)
                    (2): ReLU6(inplace=True)
                  )
                  (2): Sequential(
                    (0): Conv2d(128, 128, kernel_size=(5, 5), stride=(1, 1), padding=(2, 2), groups=128, bias=False)
                    (1): BatchNorm2d(128, eps=1e-05, momentum=0.1, affine=True, track_running_stats=True)
                    (2): ReLU6(inplace=True)
                  )
                )
              )
              (pconv2): Sequential(
                (0): Conv2d(128, 64, kernel_size=(1, 1), stride=(1, 1), bias=False)
                (1): BatchNorm2d(64, eps=1e-05, momentum=0.1, affine=True, track_running_stats=True)
              )
            )
          )
          (conv51): UnetResBlock(
            (inception): Inception3D(
              (p1_1): Conv2p5D(
                (pointwise): Conv3d(64, 16, kernel_size=(1, 1, 1), stride=(1, 1, 1))
                (depthwise_spatial): Conv3d(16, 16, kernel_size=(1, 1, 1), stride=(1, 1, 1), groups=16)
                (depthwise_temporal): Conv3d(16, 16, kernel_size=(1, 1, 1), stride=(1, 1, 1), groups=16)
              )
              (p2_1): Conv2p5D(
                (pointwise): Conv3d(64, 8, kernel_size=(1, 1, 1), stride=(1, 1, 1))
                (depthwise_spatial): Conv3d(8, 8, kernel_size=(1, 1, 1), stride=(1, 1, 1), groups=8)
                (depthwise_temporal): Conv3d(8, 8, kernel_size=(1, 1, 1), stride=(1, 1, 1), groups=8)
              )
              (p2_2): Conv2p5D(
                (pointwise): Conv3d(8, 16, kernel_size=(1, 1, 1), stride=(1, 1, 1))
                (depthwise_spatial): Conv3d(16, 16, kernel_size=(1, 3, 3), stride=(1, 1, 1), padding=(0, 1, 1), groups=16)
                (depthwise_temporal): Conv3d(16, 16, kernel_size=(3, 1, 1), stride=(1, 1, 1), padding=(1, 0, 0), groups=16)
              )
              (p3_1): Conv2p5D(
                (pointwise): Conv3d(64, 8, kernel_size=(1, 1, 1), stride=(1, 1, 1))
                (depthwise_spatial): Conv3d(8, 8, kernel_size=(1, 1, 1), stride=(1, 1, 1), groups=8)
                (depthwise_temporal): Conv3d(8, 8, kernel_size=(1, 1, 1), stride=(1, 1, 1), groups=8)
              )
              (p3_2): Conv2p5D(
                (pointwise): Conv3d(8, 16, kernel_size=(1, 1, 1), stride=(1, 1, 1))
                (depthwise_spatial): Conv3d(16, 16, kernel_size=(1, 5, 5), stride=(1, 1, 1), padding=(0, 2, 2), groups=16)
                (depthwise_temporal): Conv3d(16, 16, kernel_size=(5, 1, 1), stride=(1, 1, 1), padding=(2, 0, 0), groups=16)
              )
              (p4_1): MaxPool3d(kernel_size=3, stride=1, padding=1, dilation=1, ceil_mode=False)
              (p4_2): Conv2p5D(
                (pointwise): Conv3d(64, 16, kernel_size=(1, 1, 1), stride=(1, 1, 1))
                (depthwise_spatial): Conv3d(16, 16, kernel_size=(1, 1, 1), stride=(1, 1, 1), groups=16)
                (depthwise_temporal): Conv3d(16, 16, kernel_size=(1, 1, 1), stride=(1, 1, 1), groups=16)
              )
            )
            (norm1): BatchNorm3d(64, eps=1e-05, momentum=0.1, affine=True, track_running_stats=True)
            (act): LeakyReLU(negative_slope=0.01, inplace=True)
            (inception2): Convolution(
              (conv): Conv3d(64, 64, kernel_size=(3, 3, 3), stride=(1, 1, 1), padding=(1, 1, 1), bias=False)
            )
            (norm2): BatchNorm3d(64, eps=1e-05, momentum=0.1, affine=True, track_running_stats=True)
          )
          (conv52): UnetResBlock(
            (inception): Inception3D(
              (p1_1): Conv2p5D(
                (pointwise): Conv3d(64, 16, kernel_size=(1, 1, 1), stride=(1, 1, 1))
                (depthwise_spatial): Conv3d(16, 16, kernel_size=(1, 1, 1), stride=(1, 1, 1), groups=16)
                (depthwise_temporal): Conv3d(16, 16, kernel_size=(1, 1, 1), stride=(1, 1, 1), groups=16)
              )
              (p2_1): Conv2p5D(
                (pointwise): Conv3d(64, 8, kernel_size=(1, 1, 1), stride=(1, 1, 1))
                (depthwise_spatial): Conv3d(8, 8, kernel_size=(1, 1, 1), stride=(1, 1, 1), groups=8)
                (depthwise_temporal): Conv3d(8, 8, kernel_size=(1, 1, 1), stride=(1, 1, 1), groups=8)
              )
              (p2_2): Conv2p5D(
                (pointwise): Conv3d(8, 16, kernel_size=(1, 1, 1), stride=(1, 1, 1))
                (depthwise_spatial): Conv3d(16, 16, kernel_size=(1, 3, 3), stride=(1, 1, 1), padding=(0, 1, 1), groups=16)
                (depthwise_temporal): Conv3d(16, 16, kernel_size=(3, 1, 1), stride=(1, 1, 1), padding=(1, 0, 0), groups=16)
              )
              (p3_1): Conv2p5D(
                (pointwise): Conv3d(64, 8, kernel_size=(1, 1, 1), stride=(1, 1, 1))
                (depthwise_spatial): Conv3d(8, 8, kernel_size=(1, 1, 1), stride=(1, 1, 1), groups=8)
                (depthwise_temporal): Conv3d(8, 8, kernel_size=(1, 1, 1), stride=(1, 1, 1), groups=8)
              )
              (p3_2): Conv2p5D(
                (pointwise): Conv3d(8, 16, kernel_size=(1, 1, 1), stride=(1, 1, 1))
                (depthwise_spatial): Conv3d(16, 16, kernel_size=(1, 5, 5), stride=(1, 1, 1), padding=(0, 2, 2), groups=16)
                (depthwise_temporal): Conv3d(16, 16, kernel_size=(5, 1, 1), stride=(1, 1, 1), padding=(2, 0, 0), groups=16)
              )
              (p4_1): MaxPool3d(kernel_size=3, stride=1, padding=1, dilation=1, ceil_mode=False)
              (p4_2): Conv2p5D(
                (pointwise): Conv3d(64, 16, kernel_size=(1, 1, 1), stride=(1, 1, 1))
                (depthwise_spatial): Conv3d(16, 16, kernel_size=(1, 1, 1), stride=(1, 1, 1), groups=16)
                (depthwise_temporal): Conv3d(16, 16, kernel_size=(1, 1, 1), stride=(1, 1, 1), groups=16)
              )
            )
            (norm1): BatchNorm3d(64, eps=1e-05, momentum=0.1, affine=True, track_running_stats=True)
            (act): LeakyReLU(negative_slope=0.01, inplace=True)
            (inception2): Convolution(
              (conv): Conv3d(64, 64, kernel_size=(3, 3, 3), stride=(1, 1, 1), padding=(1, 1, 1), bias=False)
            )
            (norm2): BatchNorm3d(64, eps=1e-05, momentum=0.1, affine=True, track_running_stats=True)
          )
          (conv8): Sequential(
            (0): Dropout3d(p=0.1, inplace=False)
            (1): Conv3d(64, 64, kernel_size=(1, 1, 1), stride=(1, 1, 1))
          )
        )
        (1): TransformerBlock(
          (norm): LayerNorm((64,), eps=1e-05, elementwise_affine=True)
          (epa_block): EPA(
            (epa): LightCBAM(
              (simam_channel): simam_module(
                (activation): Sigmoid()
              )
              (ca_drop): Dropout(p=0.15, inplace=False)
              (simam_spatial): simam_spatial(
                (activation): Sigmoid()
              )
              (sa_drop): Dropout(p=0.15, inplace=False)
            )
            (mscb): MSCB(
              (pconv1): Sequential(
                (0): Conv2d(64, 128, kernel_size=(1, 1), stride=(1, 1), bias=False)
                (1): BatchNorm2d(128, eps=1e-05, momentum=0.1, affine=True, track_running_stats=True)
                (2): ReLU6(inplace=True)
              )
              (msdc): MSDC(
                (dwconvs): ModuleList(
                  (0): Sequential(
                    (0): Conv2d(128, 128, kernel_size=(1, 1), stride=(1, 1), groups=128, bias=False)
                    (1): BatchNorm2d(128, eps=1e-05, momentum=0.1, affine=True, track_running_stats=True)
                    (2): ReLU6(inplace=True)
                  )
                  (1): Sequential(
                    (0): Conv2d(128, 128, kernel_size=(3, 3), stride=(1, 1), padding=(1, 1), groups=128, bias=False)
                    (1): BatchNorm2d(128, eps=1e-05, momentum=0.1, affine=True, track_running_stats=True)
                    (2): ReLU6(inplace=True)
                  )
                  (2): Sequential(
                    (0): Conv2d(128, 128, kernel_size=(5, 5), stride=(1, 1), padding=(2, 2), groups=128, bias=False)
                    (1): BatchNorm2d(128, eps=1e-05, momentum=0.1, affine=True, track_running_stats=True)
                    (2): ReLU6(inplace=True)
                  )
                )
              )
              (pconv2): Sequential(
                (0): Conv2d(128, 64, kernel_size=(1, 1), stride=(1, 1), bias=False)
                (1): BatchNorm2d(64, eps=1e-05, momentum=0.1, affine=True, track_running_stats=True)
              )
            )
          )
          (conv51): UnetResBlock(
            (inception): Inception3D(
              (p1_1): Conv2p5D(
                (pointwise): Conv3d(64, 16, kernel_size=(1, 1, 1), stride=(1, 1, 1))
                (depthwise_spatial): Conv3d(16, 16, kernel_size=(1, 1, 1), stride=(1, 1, 1), groups=16)
                (depthwise_temporal): Conv3d(16, 16, kernel_size=(1, 1, 1), stride=(1, 1, 1), groups=16)
              )
              (p2_1): Conv2p5D(
                (pointwise): Conv3d(64, 8, kernel_size=(1, 1, 1), stride=(1, 1, 1))
                (depthwise_spatial): Conv3d(8, 8, kernel_size=(1, 1, 1), stride=(1, 1, 1), groups=8)
                (depthwise_temporal): Conv3d(8, 8, kernel_size=(1, 1, 1), stride=(1, 1, 1), groups=8)
              )
              (p2_2): Conv2p5D(
                (pointwise): Conv3d(8, 16, kernel_size=(1, 1, 1), stride=(1, 1, 1))
                (depthwise_spatial): Conv3d(16, 16, kernel_size=(1, 3, 3), stride=(1, 1, 1), padding=(0, 1, 1), groups=16)
                (depthwise_temporal): Conv3d(16, 16, kernel_size=(3, 1, 1), stride=(1, 1, 1), padding=(1, 0, 0), groups=16)
              )
              (p3_1): Conv2p5D(
                (pointwise): Conv3d(64, 8, kernel_size=(1, 1, 1), stride=(1, 1, 1))
                (depthwise_spatial): Conv3d(8, 8, kernel_size=(1, 1, 1), stride=(1, 1, 1), groups=8)
                (depthwise_temporal): Conv3d(8, 8, kernel_size=(1, 1, 1), stride=(1, 1, 1), groups=8)
              )
              (p3_2): Conv2p5D(
                (pointwise): Conv3d(8, 16, kernel_size=(1, 1, 1), stride=(1, 1, 1))
                (depthwise_spatial): Conv3d(16, 16, kernel_size=(1, 5, 5), stride=(1, 1, 1), padding=(0, 2, 2), groups=16)
                (depthwise_temporal): Conv3d(16, 16, kernel_size=(5, 1, 1), stride=(1, 1, 1), padding=(2, 0, 0), groups=16)
              )
              (p4_1): MaxPool3d(kernel_size=3, stride=1, padding=1, dilation=1, ceil_mode=False)
              (p4_2): Conv2p5D(
                (pointwise): Conv3d(64, 16, kernel_size=(1, 1, 1), stride=(1, 1, 1))
                (depthwise_spatial): Conv3d(16, 16, kernel_size=(1, 1, 1), stride=(1, 1, 1), groups=16)
                (depthwise_temporal): Conv3d(16, 16, kernel_size=(1, 1, 1), stride=(1, 1, 1), groups=16)
              )
            )
            (norm1): BatchNorm3d(64, eps=1e-05, momentum=0.1, affine=True, track_running_stats=True)
            (act): LeakyReLU(negative_slope=0.01, inplace=True)
            (inception2): Convolution(
              (conv): Conv3d(64, 64, kernel_size=(3, 3, 3), stride=(1, 1, 1), padding=(1, 1, 1), bias=False)
            )
            (norm2): BatchNorm3d(64, eps=1e-05, momentum=0.1, affine=True, track_running_stats=True)
          )
          (conv52): UnetResBlock(
            (inception): Inception3D(
              (p1_1): Conv2p5D(
                (pointwise): Conv3d(64, 16, kernel_size=(1, 1, 1), stride=(1, 1, 1))
                (depthwise_spatial): Conv3d(16, 16, kernel_size=(1, 1, 1), stride=(1, 1, 1), groups=16)
                (depthwise_temporal): Conv3d(16, 16, kernel_size=(1, 1, 1), stride=(1, 1, 1), groups=16)
              )
              (p2_1): Conv2p5D(
                (pointwise): Conv3d(64, 8, kernel_size=(1, 1, 1), stride=(1, 1, 1))
                (depthwise_spatial): Conv3d(8, 8, kernel_size=(1, 1, 1), stride=(1, 1, 1), groups=8)
                (depthwise_temporal): Conv3d(8, 8, kernel_size=(1, 1, 1), stride=(1, 1, 1), groups=8)
              )
              (p2_2): Conv2p5D(
                (pointwise): Conv3d(8, 16, kernel_size=(1, 1, 1), stride=(1, 1, 1))
                (depthwise_spatial): Conv3d(16, 16, kernel_size=(1, 3, 3), stride=(1, 1, 1), padding=(0, 1, 1), groups=16)
                (depthwise_temporal): Conv3d(16, 16, kernel_size=(3, 1, 1), stride=(1, 1, 1), padding=(1, 0, 0), groups=16)
              )
              (p3_1): Conv2p5D(
                (pointwise): Conv3d(64, 8, kernel_size=(1, 1, 1), stride=(1, 1, 1))
                (depthwise_spatial): Conv3d(8, 8, kernel_size=(1, 1, 1), stride=(1, 1, 1), groups=8)
                (depthwise_temporal): Conv3d(8, 8, kernel_size=(1, 1, 1), stride=(1, 1, 1), groups=8)
              )
              (p3_2): Conv2p5D(
                (pointwise): Conv3d(8, 16, kernel_size=(1, 1, 1), stride=(1, 1, 1))
                (depthwise_spatial): Conv3d(16, 16, kernel_size=(1, 5, 5), stride=(1, 1, 1), padding=(0, 2, 2), groups=16)
                (depthwise_temporal): Conv3d(16, 16, kernel_size=(5, 1, 1), stride=(1, 1, 1), padding=(2, 0, 0), groups=16)
              )
              (p4_1): MaxPool3d(kernel_size=3, stride=1, padding=1, dilation=1, ceil_mode=False)
              (p4_2): Conv2p5D(
                (pointwise): Conv3d(64, 16, kernel_size=(1, 1, 1), stride=(1, 1, 1))
                (depthwise_spatial): Conv3d(16, 16, kernel_size=(1, 1, 1), stride=(1, 1, 1), groups=16)
                (depthwise_temporal): Conv3d(16, 16, kernel_size=(1, 1, 1), stride=(1, 1, 1), groups=16)
              )
            )
            (norm1): BatchNorm3d(64, eps=1e-05, momentum=0.1, affine=True, track_running_stats=True)
            (act): LeakyReLU(negative_slope=0.01, inplace=True)
            (inception2): Convolution(
              (conv): Conv3d(64, 64, kernel_size=(3, 3, 3), stride=(1, 1, 1), padding=(1, 1, 1), bias=False)
            )
            (norm2): BatchNorm3d(64, eps=1e-05, momentum=0.1, affine=True, track_running_stats=True)
          )
          (conv8): Sequential(
            (0): Dropout3d(p=0.1, inplace=False)
            (1): Conv3d(64, 64, kernel_size=(1, 1, 1), stride=(1, 1, 1))
          )
        )
        (2): TransformerBlock(
          (norm): LayerNorm((64,), eps=1e-05, elementwise_affine=True)
          (epa_block): EPA(
            (epa): LightCBAM(
              (simam_channel): simam_module(
                (activation): Sigmoid()
              )
              (ca_drop): Dropout(p=0.15, inplace=False)
              (simam_spatial): simam_spatial(
                (activation): Sigmoid()
              )
              (sa_drop): Dropout(p=0.15, inplace=False)
            )
            (mscb): MSCB(
              (pconv1): Sequential(
                (0): Conv2d(64, 128, kernel_size=(1, 1), stride=(1, 1), bias=False)
                (1): BatchNorm2d(128, eps=1e-05, momentum=0.1, affine=True, track_running_stats=True)
                (2): ReLU6(inplace=True)
              )
              (msdc): MSDC(
                (dwconvs): ModuleList(
                  (0): Sequential(
                    (0): Conv2d(128, 128, kernel_size=(1, 1), stride=(1, 1), groups=128, bias=False)
                    (1): BatchNorm2d(128, eps=1e-05, momentum=0.1, affine=True, track_running_stats=True)
                    (2): ReLU6(inplace=True)
                  )
                  (1): Sequential(
                    (0): Conv2d(128, 128, kernel_size=(3, 3), stride=(1, 1), padding=(1, 1), groups=128, bias=False)
                    (1): BatchNorm2d(128, eps=1e-05, momentum=0.1, affine=True, track_running_stats=True)
                    (2): ReLU6(inplace=True)
                  )
                  (2): Sequential(
                    (0): Conv2d(128, 128, kernel_size=(5, 5), stride=(1, 1), padding=(2, 2), groups=128, bias=False)
                    (1): BatchNorm2d(128, eps=1e-05, momentum=0.1, affine=True, track_running_stats=True)
                    (2): ReLU6(inplace=True)
                  )
                )
              )
              (pconv2): Sequential(
                (0): Conv2d(128, 64, kernel_size=(1, 1), stride=(1, 1), bias=False)
                (1): BatchNorm2d(64, eps=1e-05, momentum=0.1, affine=True, track_running_stats=True)
              )
            )
          )
          (conv51): UnetResBlock(
            (inception): Inception3D(
              (p1_1): Conv2p5D(
                (pointwise): Conv3d(64, 16, kernel_size=(1, 1, 1), stride=(1, 1, 1))
                (depthwise_spatial): Conv3d(16, 16, kernel_size=(1, 1, 1), stride=(1, 1, 1), groups=16)
                (depthwise_temporal): Conv3d(16, 16, kernel_size=(1, 1, 1), stride=(1, 1, 1), groups=16)
              )
              (p2_1): Conv2p5D(
                (pointwise): Conv3d(64, 8, kernel_size=(1, 1, 1), stride=(1, 1, 1))
                (depthwise_spatial): Conv3d(8, 8, kernel_size=(1, 1, 1), stride=(1, 1, 1), groups=8)
                (depthwise_temporal): Conv3d(8, 8, kernel_size=(1, 1, 1), stride=(1, 1, 1), groups=8)
              )
              (p2_2): Conv2p5D(
                (pointwise): Conv3d(8, 16, kernel_size=(1, 1, 1), stride=(1, 1, 1))
                (depthwise_spatial): Conv3d(16, 16, kernel_size=(1, 3, 3), stride=(1, 1, 1), padding=(0, 1, 1), groups=16)
                (depthwise_temporal): Conv3d(16, 16, kernel_size=(3, 1, 1), stride=(1, 1, 1), padding=(1, 0, 0), groups=16)
              )
              (p3_1): Conv2p5D(
                (pointwise): Conv3d(64, 8, kernel_size=(1, 1, 1), stride=(1, 1, 1))
                (depthwise_spatial): Conv3d(8, 8, kernel_size=(1, 1, 1), stride=(1, 1, 1), groups=8)
                (depthwise_temporal): Conv3d(8, 8, kernel_size=(1, 1, 1), stride=(1, 1, 1), groups=8)
              )
              (p3_2): Conv2p5D(
                (pointwise): Conv3d(8, 16, kernel_size=(1, 1, 1), stride=(1, 1, 1))
                (depthwise_spatial): Conv3d(16, 16, kernel_size=(1, 5, 5), stride=(1, 1, 1), padding=(0, 2, 2), groups=16)
                (depthwise_temporal): Conv3d(16, 16, kernel_size=(5, 1, 1), stride=(1, 1, 1), padding=(2, 0, 0), groups=16)
              )
              (p4_1): MaxPool3d(kernel_size=3, stride=1, padding=1, dilation=1, ceil_mode=False)
              (p4_2): Conv2p5D(
                (pointwise): Conv3d(64, 16, kernel_size=(1, 1, 1), stride=(1, 1, 1))
                (depthwise_spatial): Conv3d(16, 16, kernel_size=(1, 1, 1), stride=(1, 1, 1), groups=16)
                (depthwise_temporal): Conv3d(16, 16, kernel_size=(1, 1, 1), stride=(1, 1, 1), groups=16)
              )
            )
            (norm1): BatchNorm3d(64, eps=1e-05, momentum=0.1, affine=True, track_running_stats=True)
            (act): LeakyReLU(negative_slope=0.01, inplace=True)
            (inception2): Convolution(
              (conv): Conv3d(64, 64, kernel_size=(3, 3, 3), stride=(1, 1, 1), padding=(1, 1, 1), bias=False)
            )
            (norm2): BatchNorm3d(64, eps=1e-05, momentum=0.1, affine=True, track_running_stats=True)
          )
          (conv52): UnetResBlock(
            (inception): Inception3D(
              (p1_1): Conv2p5D(
                (pointwise): Conv3d(64, 16, kernel_size=(1, 1, 1), stride=(1, 1, 1))
                (depthwise_spatial): Conv3d(16, 16, kernel_size=(1, 1, 1), stride=(1, 1, 1), groups=16)
                (depthwise_temporal): Conv3d(16, 16, kernel_size=(1, 1, 1), stride=(1, 1, 1), groups=16)
              )
              (p2_1): Conv2p5D(
                (pointwise): Conv3d(64, 8, kernel_size=(1, 1, 1), stride=(1, 1, 1))
                (depthwise_spatial): Conv3d(8, 8, kernel_size=(1, 1, 1), stride=(1, 1, 1), groups=8)
                (depthwise_temporal): Conv3d(8, 8, kernel_size=(1, 1, 1), stride=(1, 1, 1), groups=8)
              )
              (p2_2): Conv2p5D(
                (pointwise): Conv3d(8, 16, kernel_size=(1, 1, 1), stride=(1, 1, 1))
                (depthwise_spatial): Conv3d(16, 16, kernel_size=(1, 3, 3), stride=(1, 1, 1), padding=(0, 1, 1), groups=16)
                (depthwise_temporal): Conv3d(16, 16, kernel_size=(3, 1, 1), stride=(1, 1, 1), padding=(1, 0, 0), groups=16)
              )
              (p3_1): Conv2p5D(
                (pointwise): Conv3d(64, 8, kernel_size=(1, 1, 1), stride=(1, 1, 1))
                (depthwise_spatial): Conv3d(8, 8, kernel_size=(1, 1, 1), stride=(1, 1, 1), groups=8)
                (depthwise_temporal): Conv3d(8, 8, kernel_size=(1, 1, 1), stride=(1, 1, 1), groups=8)
              )
              (p3_2): Conv2p5D(
                (pointwise): Conv3d(8, 16, kernel_size=(1, 1, 1), stride=(1, 1, 1))
                (depthwise_spatial): Conv3d(16, 16, kernel_size=(1, 5, 5), stride=(1, 1, 1), padding=(0, 2, 2), groups=16)
                (depthwise_temporal): Conv3d(16, 16, kernel_size=(5, 1, 1), stride=(1, 1, 1), padding=(2, 0, 0), groups=16)
              )
              (p4_1): MaxPool3d(kernel_size=3, stride=1, padding=1, dilation=1, ceil_mode=False)
              (p4_2): Conv2p5D(
                (pointwise): Conv3d(64, 16, kernel_size=(1, 1, 1), stride=(1, 1, 1))
                (depthwise_spatial): Conv3d(16, 16, kernel_size=(1, 1, 1), stride=(1, 1, 1), groups=16)
                (depthwise_temporal): Conv3d(16, 16, kernel_size=(1, 1, 1), stride=(1, 1, 1), groups=16)
              )
            )
            (norm1): BatchNorm3d(64, eps=1e-05, momentum=0.1, affine=True, track_running_stats=True)
            (act): LeakyReLU(negative_slope=0.01, inplace=True)
            (inception2): Convolution(
              (conv): Conv3d(64, 64, kernel_size=(3, 3, 3), stride=(1, 1, 1), padding=(1, 1, 1), bias=False)
            )
            (norm2): BatchNorm3d(64, eps=1e-05, momentum=0.1, affine=True, track_running_stats=True)
          )
          (conv8): Sequential(
            (0): Dropout3d(p=0.1, inplace=False)
            (1): Conv3d(64, 64, kernel_size=(1, 1, 1), stride=(1, 1, 1))
          )
        )
      )
    )
  )
  (decoder3): UnetrUpBlock(
    (transp_conv): Convolution(
      (conv): ConvTranspose3d(64, 32, kernel_size=(2, 2, 2), stride=(2, 2, 2), bias=False)
    )
    (decoder_block): ModuleList(
      (0): Sequential(
        (0): TransformerBlock(
          (norm): LayerNorm((32,), eps=1e-05, elementwise_affine=True)
          (epa_block): EPA(
            (epa): LightCBAM(
              (simam_channel): simam_module(
                (activation): Sigmoid()
              )
              (ca_drop): Dropout(p=0.15, inplace=False)
              (simam_spatial): simam_spatial(
                (activation): Sigmoid()
              )
              (sa_drop): Dropout(p=0.15, inplace=False)
            )
            (mscb): MSCB(
              (pconv1): Sequential(
                (0): Conv2d(32, 64, kernel_size=(1, 1), stride=(1, 1), bias=False)
                (1): BatchNorm2d(64, eps=1e-05, momentum=0.1, affine=True, track_running_stats=True)
                (2): ReLU6(inplace=True)
              )
              (msdc): MSDC(
                (dwconvs): ModuleList(
                  (0): Sequential(
                    (0): Conv2d(64, 64, kernel_size=(1, 1), stride=(1, 1), groups=64, bias=False)
                    (1): BatchNorm2d(64, eps=1e-05, momentum=0.1, affine=True, track_running_stats=True)
                    (2): ReLU6(inplace=True)
                  )
                  (1): Sequential(
                    (0): Conv2d(64, 64, kernel_size=(3, 3), stride=(1, 1), padding=(1, 1), groups=64, bias=False)
                    (1): BatchNorm2d(64, eps=1e-05, momentum=0.1, affine=True, track_running_stats=True)
                    (2): ReLU6(inplace=True)
                  )
                  (2): Sequential(
                    (0): Conv2d(64, 64, kernel_size=(5, 5), stride=(1, 1), padding=(2, 2), groups=64, bias=False)
                    (1): BatchNorm2d(64, eps=1e-05, momentum=0.1, affine=True, track_running_stats=True)
                    (2): ReLU6(inplace=True)
                  )
                )
              )
              (pconv2): Sequential(
                (0): Conv2d(64, 32, kernel_size=(1, 1), stride=(1, 1), bias=False)
                (1): BatchNorm2d(32, eps=1e-05, momentum=0.1, affine=True, track_running_stats=True)
              )
            )
          )
          (conv51): UnetResBlock(
            (inception): Inception3D(
              (p1_1): Conv2p5D(
                (pointwise): Conv3d(32, 8, kernel_size=(1, 1, 1), stride=(1, 1, 1))
                (depthwise_spatial): Conv3d(8, 8, kernel_size=(1, 1, 1), stride=(1, 1, 1), groups=8)
                (depthwise_temporal): Conv3d(8, 8, kernel_size=(1, 1, 1), stride=(1, 1, 1), groups=8)
              )
              (p2_1): Conv2p5D(
                (pointwise): Conv3d(32, 4, kernel_size=(1, 1, 1), stride=(1, 1, 1))
                (depthwise_spatial): Conv3d(4, 4, kernel_size=(1, 1, 1), stride=(1, 1, 1), groups=4)
                (depthwise_temporal): Conv3d(4, 4, kernel_size=(1, 1, 1), stride=(1, 1, 1), groups=4)
              )
              (p2_2): Conv2p5D(
                (pointwise): Conv3d(4, 8, kernel_size=(1, 1, 1), stride=(1, 1, 1))
                (depthwise_spatial): Conv3d(8, 8, kernel_size=(1, 3, 3), stride=(1, 1, 1), padding=(0, 1, 1), groups=8)
                (depthwise_temporal): Conv3d(8, 8, kernel_size=(3, 1, 1), stride=(1, 1, 1), padding=(1, 0, 0), groups=8)
              )
              (p3_1): Conv2p5D(
                (pointwise): Conv3d(32, 4, kernel_size=(1, 1, 1), stride=(1, 1, 1))
                (depthwise_spatial): Conv3d(4, 4, kernel_size=(1, 1, 1), stride=(1, 1, 1), groups=4)
                (depthwise_temporal): Conv3d(4, 4, kernel_size=(1, 1, 1), stride=(1, 1, 1), groups=4)
              )
              (p3_2): Conv2p5D(
                (pointwise): Conv3d(4, 8, kernel_size=(1, 1, 1), stride=(1, 1, 1))
                (depthwise_spatial): Conv3d(8, 8, kernel_size=(1, 5, 5), stride=(1, 1, 1), padding=(0, 2, 2), groups=8)
                (depthwise_temporal): Conv3d(8, 8, kernel_size=(5, 1, 1), stride=(1, 1, 1), padding=(2, 0, 0), groups=8)
              )
              (p4_1): MaxPool3d(kernel_size=3, stride=1, padding=1, dilation=1, ceil_mode=False)
              (p4_2): Conv2p5D(
                (pointwise): Conv3d(32, 8, kernel_size=(1, 1, 1), stride=(1, 1, 1))
                (depthwise_spatial): Conv3d(8, 8, kernel_size=(1, 1, 1), stride=(1, 1, 1), groups=8)
                (depthwise_temporal): Conv3d(8, 8, kernel_size=(1, 1, 1), stride=(1, 1, 1), groups=8)
              )
            )
            (norm1): BatchNorm3d(32, eps=1e-05, momentum=0.1, affine=True, track_running_stats=True)
            (act): LeakyReLU(negative_slope=0.01, inplace=True)
            (inception2): Convolution(
              (conv): Conv3d(32, 32, kernel_size=(3, 3, 3), stride=(1, 1, 1), padding=(1, 1, 1), bias=False)
            )
            (norm2): BatchNorm3d(32, eps=1e-05, momentum=0.1, affine=True, track_running_stats=True)
          )
          (conv52): UnetResBlock(
            (inception): Inception3D(
              (p1_1): Conv2p5D(
                (pointwise): Conv3d(32, 8, kernel_size=(1, 1, 1), stride=(1, 1, 1))
                (depthwise_spatial): Conv3d(8, 8, kernel_size=(1, 1, 1), stride=(1, 1, 1), groups=8)
                (depthwise_temporal): Conv3d(8, 8, kernel_size=(1, 1, 1), stride=(1, 1, 1), groups=8)
              )
              (p2_1): Conv2p5D(
                (pointwise): Conv3d(32, 4, kernel_size=(1, 1, 1), stride=(1, 1, 1))
                (depthwise_spatial): Conv3d(4, 4, kernel_size=(1, 1, 1), stride=(1, 1, 1), groups=4)
                (depthwise_temporal): Conv3d(4, 4, kernel_size=(1, 1, 1), stride=(1, 1, 1), groups=4)
              )
              (p2_2): Conv2p5D(
                (pointwise): Conv3d(4, 8, kernel_size=(1, 1, 1), stride=(1, 1, 1))
                (depthwise_spatial): Conv3d(8, 8, kernel_size=(1, 3, 3), stride=(1, 1, 1), padding=(0, 1, 1), groups=8)
                (depthwise_temporal): Conv3d(8, 8, kernel_size=(3, 1, 1), stride=(1, 1, 1), padding=(1, 0, 0), groups=8)
              )
              (p3_1): Conv2p5D(
                (pointwise): Conv3d(32, 4, kernel_size=(1, 1, 1), stride=(1, 1, 1))
                (depthwise_spatial): Conv3d(4, 4, kernel_size=(1, 1, 1), stride=(1, 1, 1), groups=4)
                (depthwise_temporal): Conv3d(4, 4, kernel_size=(1, 1, 1), stride=(1, 1, 1), groups=4)
              )
              (p3_2): Conv2p5D(
                (pointwise): Conv3d(4, 8, kernel_size=(1, 1, 1), stride=(1, 1, 1))
                (depthwise_spatial): Conv3d(8, 8, kernel_size=(1, 5, 5), stride=(1, 1, 1), padding=(0, 2, 2), groups=8)
                (depthwise_temporal): Conv3d(8, 8, kernel_size=(5, 1, 1), stride=(1, 1, 1), padding=(2, 0, 0), groups=8)
              )
              (p4_1): MaxPool3d(kernel_size=3, stride=1, padding=1, dilation=1, ceil_mode=False)
              (p4_2): Conv2p5D(
                (pointwise): Conv3d(32, 8, kernel_size=(1, 1, 1), stride=(1, 1, 1))
                (depthwise_spatial): Conv3d(8, 8, kernel_size=(1, 1, 1), stride=(1, 1, 1), groups=8)
                (depthwise_temporal): Conv3d(8, 8, kernel_size=(1, 1, 1), stride=(1, 1, 1), groups=8)
              )
            )
            (norm1): BatchNorm3d(32, eps=1e-05, momentum=0.1, affine=True, track_running_stats=True)
            (act): LeakyReLU(negative_slope=0.01, inplace=True)
            (inception2): Convolution(
              (conv): Conv3d(32, 32, kernel_size=(3, 3, 3), stride=(1, 1, 1), padding=(1, 1, 1), bias=False)
            )
            (norm2): BatchNorm3d(32, eps=1e-05, momentum=0.1, affine=True, track_running_stats=True)
          )
          (conv8): Sequential(
            (0): Dropout3d(p=0.1, inplace=False)
            (1): Conv3d(32, 32, kernel_size=(1, 1, 1), stride=(1, 1, 1))
          )
        )
        (1): TransformerBlock(
          (norm): LayerNorm((32,), eps=1e-05, elementwise_affine=True)
          (epa_block): EPA(
            (epa): LightCBAM(
              (simam_channel): simam_module(
                (activation): Sigmoid()
              )
              (ca_drop): Dropout(p=0.15, inplace=False)
              (simam_spatial): simam_spatial(
                (activation): Sigmoid()
              )
              (sa_drop): Dropout(p=0.15, inplace=False)
            )
            (mscb): MSCB(
              (pconv1): Sequential(
                (0): Conv2d(32, 64, kernel_size=(1, 1), stride=(1, 1), bias=False)
                (1): BatchNorm2d(64, eps=1e-05, momentum=0.1, affine=True, track_running_stats=True)
                (2): ReLU6(inplace=True)
              )
              (msdc): MSDC(
                (dwconvs): ModuleList(
                  (0): Sequential(
                    (0): Conv2d(64, 64, kernel_size=(1, 1), stride=(1, 1), groups=64, bias=False)
                    (1): BatchNorm2d(64, eps=1e-05, momentum=0.1, affine=True, track_running_stats=True)
                    (2): ReLU6(inplace=True)
                  )
                  (1): Sequential(
                    (0): Conv2d(64, 64, kernel_size=(3, 3), stride=(1, 1), padding=(1, 1), groups=64, bias=False)
                    (1): BatchNorm2d(64, eps=1e-05, momentum=0.1, affine=True, track_running_stats=True)
                    (2): ReLU6(inplace=True)
                  )
                  (2): Sequential(
                    (0): Conv2d(64, 64, kernel_size=(5, 5), stride=(1, 1), padding=(2, 2), groups=64, bias=False)
                    (1): BatchNorm2d(64, eps=1e-05, momentum=0.1, affine=True, track_running_stats=True)
                    (2): ReLU6(inplace=True)
                  )
                )
              )
              (pconv2): Sequential(
                (0): Conv2d(64, 32, kernel_size=(1, 1), stride=(1, 1), bias=False)
                (1): BatchNorm2d(32, eps=1e-05, momentum=0.1, affine=True, track_running_stats=True)
              )
            )
          )
          (conv51): UnetResBlock(
            (inception): Inception3D(
              (p1_1): Conv2p5D(
                (pointwise): Conv3d(32, 8, kernel_size=(1, 1, 1), stride=(1, 1, 1))
                (depthwise_spatial): Conv3d(8, 8, kernel_size=(1, 1, 1), stride=(1, 1, 1), groups=8)
                (depthwise_temporal): Conv3d(8, 8, kernel_size=(1, 1, 1), stride=(1, 1, 1), groups=8)
              )
              (p2_1): Conv2p5D(
                (pointwise): Conv3d(32, 4, kernel_size=(1, 1, 1), stride=(1, 1, 1))
                (depthwise_spatial): Conv3d(4, 4, kernel_size=(1, 1, 1), stride=(1, 1, 1), groups=4)
                (depthwise_temporal): Conv3d(4, 4, kernel_size=(1, 1, 1), stride=(1, 1, 1), groups=4)
              )
              (p2_2): Conv2p5D(
                (pointwise): Conv3d(4, 8, kernel_size=(1, 1, 1), stride=(1, 1, 1))
                (depthwise_spatial): Conv3d(8, 8, kernel_size=(1, 3, 3), stride=(1, 1, 1), padding=(0, 1, 1), groups=8)
                (depthwise_temporal): Conv3d(8, 8, kernel_size=(3, 1, 1), stride=(1, 1, 1), padding=(1, 0, 0), groups=8)
              )
              (p3_1): Conv2p5D(
                (pointwise): Conv3d(32, 4, kernel_size=(1, 1, 1), stride=(1, 1, 1))
                (depthwise_spatial): Conv3d(4, 4, kernel_size=(1, 1, 1), stride=(1, 1, 1), groups=4)
                (depthwise_temporal): Conv3d(4, 4, kernel_size=(1, 1, 1), stride=(1, 1, 1), groups=4)
              )
              (p3_2): Conv2p5D(
                (pointwise): Conv3d(4, 8, kernel_size=(1, 1, 1), stride=(1, 1, 1))
                (depthwise_spatial): Conv3d(8, 8, kernel_size=(1, 5, 5), stride=(1, 1, 1), padding=(0, 2, 2), groups=8)
                (depthwise_temporal): Conv3d(8, 8, kernel_size=(5, 1, 1), stride=(1, 1, 1), padding=(2, 0, 0), groups=8)
              )
              (p4_1): MaxPool3d(kernel_size=3, stride=1, padding=1, dilation=1, ceil_mode=False)
              (p4_2): Conv2p5D(
                (pointwise): Conv3d(32, 8, kernel_size=(1, 1, 1), stride=(1, 1, 1))
                (depthwise_spatial): Conv3d(8, 8, kernel_size=(1, 1, 1), stride=(1, 1, 1), groups=8)
                (depthwise_temporal): Conv3d(8, 8, kernel_size=(1, 1, 1), stride=(1, 1, 1), groups=8)
              )
            )
            (norm1): BatchNorm3d(32, eps=1e-05, momentum=0.1, affine=True, track_running_stats=True)
            (act): LeakyReLU(negative_slope=0.01, inplace=True)
            (inception2): Convolution(
              (conv): Conv3d(32, 32, kernel_size=(3, 3, 3), stride=(1, 1, 1), padding=(1, 1, 1), bias=False)
            )
            (norm2): BatchNorm3d(32, eps=1e-05, momentum=0.1, affine=True, track_running_stats=True)
          )
          (conv52): UnetResBlock(
            (inception): Inception3D(
              (p1_1): Conv2p5D(
                (pointwise): Conv3d(32, 8, kernel_size=(1, 1, 1), stride=(1, 1, 1))
                (depthwise_spatial): Conv3d(8, 8, kernel_size=(1, 1, 1), stride=(1, 1, 1), groups=8)
                (depthwise_temporal): Conv3d(8, 8, kernel_size=(1, 1, 1), stride=(1, 1, 1), groups=8)
              )
              (p2_1): Conv2p5D(
                (pointwise): Conv3d(32, 4, kernel_size=(1, 1, 1), stride=(1, 1, 1))
                (depthwise_spatial): Conv3d(4, 4, kernel_size=(1, 1, 1), stride=(1, 1, 1), groups=4)
                (depthwise_temporal): Conv3d(4, 4, kernel_size=(1, 1, 1), stride=(1, 1, 1), groups=4)
              )
              (p2_2): Conv2p5D(
                (pointwise): Conv3d(4, 8, kernel_size=(1, 1, 1), stride=(1, 1, 1))
                (depthwise_spatial): Conv3d(8, 8, kernel_size=(1, 3, 3), stride=(1, 1, 1), padding=(0, 1, 1), groups=8)
                (depthwise_temporal): Conv3d(8, 8, kernel_size=(3, 1, 1), stride=(1, 1, 1), padding=(1, 0, 0), groups=8)
              )
              (p3_1): Conv2p5D(
                (pointwise): Conv3d(32, 4, kernel_size=(1, 1, 1), stride=(1, 1, 1))
                (depthwise_spatial): Conv3d(4, 4, kernel_size=(1, 1, 1), stride=(1, 1, 1), groups=4)
                (depthwise_temporal): Conv3d(4, 4, kernel_size=(1, 1, 1), stride=(1, 1, 1), groups=4)
              )
              (p3_2): Conv2p5D(
                (pointwise): Conv3d(4, 8, kernel_size=(1, 1, 1), stride=(1, 1, 1))
                (depthwise_spatial): Conv3d(8, 8, kernel_size=(1, 5, 5), stride=(1, 1, 1), padding=(0, 2, 2), groups=8)
                (depthwise_temporal): Conv3d(8, 8, kernel_size=(5, 1, 1), stride=(1, 1, 1), padding=(2, 0, 0), groups=8)
              )
              (p4_1): MaxPool3d(kernel_size=3, stride=1, padding=1, dilation=1, ceil_mode=False)
              (p4_2): Conv2p5D(
                (pointwise): Conv3d(32, 8, kernel_size=(1, 1, 1), stride=(1, 1, 1))
                (depthwise_spatial): Conv3d(8, 8, kernel_size=(1, 1, 1), stride=(1, 1, 1), groups=8)
                (depthwise_temporal): Conv3d(8, 8, kernel_size=(1, 1, 1), stride=(1, 1, 1), groups=8)
              )
            )
            (norm1): BatchNorm3d(32, eps=1e-05, momentum=0.1, affine=True, track_running_stats=True)
            (act): LeakyReLU(negative_slope=0.01, inplace=True)
            (inception2): Convolution(
              (conv): Conv3d(32, 32, kernel_size=(3, 3, 3), stride=(1, 1, 1), padding=(1, 1, 1), bias=False)
            )
            (norm2): BatchNorm3d(32, eps=1e-05, momentum=0.1, affine=True, track_running_stats=True)
          )
          (conv8): Sequential(
            (0): Dropout3d(p=0.1, inplace=False)
            (1): Conv3d(32, 32, kernel_size=(1, 1, 1), stride=(1, 1, 1))
          )
        )
        (2): TransformerBlock(
          (norm): LayerNorm((32,), eps=1e-05, elementwise_affine=True)
          (epa_block): EPA(
            (epa): LightCBAM(
              (simam_channel): simam_module(
                (activation): Sigmoid()
              )
              (ca_drop): Dropout(p=0.15, inplace=False)
              (simam_spatial): simam_spatial(
                (activation): Sigmoid()
              )
              (sa_drop): Dropout(p=0.15, inplace=False)
            )
            (mscb): MSCB(
              (pconv1): Sequential(
                (0): Conv2d(32, 64, kernel_size=(1, 1), stride=(1, 1), bias=False)
                (1): BatchNorm2d(64, eps=1e-05, momentum=0.1, affine=True, track_running_stats=True)
                (2): ReLU6(inplace=True)
              )
              (msdc): MSDC(
                (dwconvs): ModuleList(
                  (0): Sequential(
                    (0): Conv2d(64, 64, kernel_size=(1, 1), stride=(1, 1), groups=64, bias=False)
                    (1): BatchNorm2d(64, eps=1e-05, momentum=0.1, affine=True, track_running_stats=True)
                    (2): ReLU6(inplace=True)
                  )
                  (1): Sequential(
                    (0): Conv2d(64, 64, kernel_size=(3, 3), stride=(1, 1), padding=(1, 1), groups=64, bias=False)
                    (1): BatchNorm2d(64, eps=1e-05, momentum=0.1, affine=True, track_running_stats=True)
                    (2): ReLU6(inplace=True)
                  )
                  (2): Sequential(
                    (0): Conv2d(64, 64, kernel_size=(5, 5), stride=(1, 1), padding=(2, 2), groups=64, bias=False)
                    (1): BatchNorm2d(64, eps=1e-05, momentum=0.1, affine=True, track_running_stats=True)
                    (2): ReLU6(inplace=True)
                  )
                )
              )
              (pconv2): Sequential(
                (0): Conv2d(64, 32, kernel_size=(1, 1), stride=(1, 1), bias=False)
                (1): BatchNorm2d(32, eps=1e-05, momentum=0.1, affine=True, track_running_stats=True)
              )
            )
          )
          (conv51): UnetResBlock(
            (inception): Inception3D(
              (p1_1): Conv2p5D(
                (pointwise): Conv3d(32, 8, kernel_size=(1, 1, 1), stride=(1, 1, 1))
                (depthwise_spatial): Conv3d(8, 8, kernel_size=(1, 1, 1), stride=(1, 1, 1), groups=8)
                (depthwise_temporal): Conv3d(8, 8, kernel_size=(1, 1, 1), stride=(1, 1, 1), groups=8)
              )
              (p2_1): Conv2p5D(
                (pointwise): Conv3d(32, 4, kernel_size=(1, 1, 1), stride=(1, 1, 1))
                (depthwise_spatial): Conv3d(4, 4, kernel_size=(1, 1, 1), stride=(1, 1, 1), groups=4)
                (depthwise_temporal): Conv3d(4, 4, kernel_size=(1, 1, 1), stride=(1, 1, 1), groups=4)
              )
              (p2_2): Conv2p5D(
                (pointwise): Conv3d(4, 8, kernel_size=(1, 1, 1), stride=(1, 1, 1))
                (depthwise_spatial): Conv3d(8, 8, kernel_size=(1, 3, 3), stride=(1, 1, 1), padding=(0, 1, 1), groups=8)
                (depthwise_temporal): Conv3d(8, 8, kernel_size=(3, 1, 1), stride=(1, 1, 1), padding=(1, 0, 0), groups=8)
              )
              (p3_1): Conv2p5D(
                (pointwise): Conv3d(32, 4, kernel_size=(1, 1, 1), stride=(1, 1, 1))
                (depthwise_spatial): Conv3d(4, 4, kernel_size=(1, 1, 1), stride=(1, 1, 1), groups=4)
                (depthwise_temporal): Conv3d(4, 4, kernel_size=(1, 1, 1), stride=(1, 1, 1), groups=4)
              )
              (p3_2): Conv2p5D(
                (pointwise): Conv3d(4, 8, kernel_size=(1, 1, 1), stride=(1, 1, 1))
                (depthwise_spatial): Conv3d(8, 8, kernel_size=(1, 5, 5), stride=(1, 1, 1), padding=(0, 2, 2), groups=8)
                (depthwise_temporal): Conv3d(8, 8, kernel_size=(5, 1, 1), stride=(1, 1, 1), padding=(2, 0, 0), groups=8)
              )
              (p4_1): MaxPool3d(kernel_size=3, stride=1, padding=1, dilation=1, ceil_mode=False)
              (p4_2): Conv2p5D(
                (pointwise): Conv3d(32, 8, kernel_size=(1, 1, 1), stride=(1, 1, 1))
                (depthwise_spatial): Conv3d(8, 8, kernel_size=(1, 1, 1), stride=(1, 1, 1), groups=8)
                (depthwise_temporal): Conv3d(8, 8, kernel_size=(1, 1, 1), stride=(1, 1, 1), groups=8)
              )
            )
            (norm1): BatchNorm3d(32, eps=1e-05, momentum=0.1, affine=True, track_running_stats=True)
            (act): LeakyReLU(negative_slope=0.01, inplace=True)
            (inception2): Convolution(
              (conv): Conv3d(32, 32, kernel_size=(3, 3, 3), stride=(1, 1, 1), padding=(1, 1, 1), bias=False)
            )
            (norm2): BatchNorm3d(32, eps=1e-05, momentum=0.1, affine=True, track_running_stats=True)
          )
          (conv52): UnetResBlock(
            (inception): Inception3D(
              (p1_1): Conv2p5D(
                (pointwise): Conv3d(32, 8, kernel_size=(1, 1, 1), stride=(1, 1, 1))
                (depthwise_spatial): Conv3d(8, 8, kernel_size=(1, 1, 1), stride=(1, 1, 1), groups=8)
                (depthwise_temporal): Conv3d(8, 8, kernel_size=(1, 1, 1), stride=(1, 1, 1), groups=8)
              )
              (p2_1): Conv2p5D(
                (pointwise): Conv3d(32, 4, kernel_size=(1, 1, 1), stride=(1, 1, 1))
                (depthwise_spatial): Conv3d(4, 4, kernel_size=(1, 1, 1), stride=(1, 1, 1), groups=4)
                (depthwise_temporal): Conv3d(4, 4, kernel_size=(1, 1, 1), stride=(1, 1, 1), groups=4)
              )
              (p2_2): Conv2p5D(
                (pointwise): Conv3d(4, 8, kernel_size=(1, 1, 1), stride=(1, 1, 1))
                (depthwise_spatial): Conv3d(8, 8, kernel_size=(1, 3, 3), stride=(1, 1, 1), padding=(0, 1, 1), groups=8)
                (depthwise_temporal): Conv3d(8, 8, kernel_size=(3, 1, 1), stride=(1, 1, 1), padding=(1, 0, 0), groups=8)
              )
              (p3_1): Conv2p5D(
                (pointwise): Conv3d(32, 4, kernel_size=(1, 1, 1), stride=(1, 1, 1))
                (depthwise_spatial): Conv3d(4, 4, kernel_size=(1, 1, 1), stride=(1, 1, 1), groups=4)
                (depthwise_temporal): Conv3d(4, 4, kernel_size=(1, 1, 1), stride=(1, 1, 1), groups=4)
              )
              (p3_2): Conv2p5D(
                (pointwise): Conv3d(4, 8, kernel_size=(1, 1, 1), stride=(1, 1, 1))
                (depthwise_spatial): Conv3d(8, 8, kernel_size=(1, 5, 5), stride=(1, 1, 1), padding=(0, 2, 2), groups=8)
                (depthwise_temporal): Conv3d(8, 8, kernel_size=(5, 1, 1), stride=(1, 1, 1), padding=(2, 0, 0), groups=8)
              )
              (p4_1): MaxPool3d(kernel_size=3, stride=1, padding=1, dilation=1, ceil_mode=False)
              (p4_2): Conv2p5D(
                (pointwise): Conv3d(32, 8, kernel_size=(1, 1, 1), stride=(1, 1, 1))
                (depthwise_spatial): Conv3d(8, 8, kernel_size=(1, 1, 1), stride=(1, 1, 1), groups=8)
                (depthwise_temporal): Conv3d(8, 8, kernel_size=(1, 1, 1), stride=(1, 1, 1), groups=8)
              )
            )
            (norm1): BatchNorm3d(32, eps=1e-05, momentum=0.1, affine=True, track_running_stats=True)
            (act): LeakyReLU(negative_slope=0.01, inplace=True)
            (inception2): Convolution(
              (conv): Conv3d(32, 32, kernel_size=(3, 3, 3), stride=(1, 1, 1), padding=(1, 1, 1), bias=False)
            )
            (norm2): BatchNorm3d(32, eps=1e-05, momentum=0.1, affine=True, track_running_stats=True)
          )
          (conv8): Sequential(
            (0): Dropout3d(p=0.1, inplace=False)
            (1): Conv3d(32, 32, kernel_size=(1, 1, 1), stride=(1, 1, 1))
          )
        )
      )
    )
  )
  (decoder2): UnetrUpBlock(
    (transp_conv): Convolution(
      (conv): ConvTranspose3d(32, 16, kernel_size=(2, 4, 4), stride=(2, 4, 4), bias=False)
    )
    (decoder_block): ModuleList(
      (0): UnetResBlock(
        (inception): Inception3D(
          (p1_1): Conv2p5D(
            (pointwise): Conv3d(16, 4, kernel_size=(1, 1, 1), stride=(1, 1, 1))
            (depthwise_spatial): Conv3d(4, 4, kernel_size=(1, 1, 1), stride=(1, 1, 1), groups=4)
            (depthwise_temporal): Conv3d(4, 4, kernel_size=(1, 1, 1), stride=(1, 1, 1), groups=4)
          )
          (p2_1): Conv2p5D(
            (pointwise): Conv3d(16, 2, kernel_size=(1, 1, 1), stride=(1, 1, 1))
            (depthwise_spatial): Conv3d(2, 2, kernel_size=(1, 1, 1), stride=(1, 1, 1), groups=2)
            (depthwise_temporal): Conv3d(2, 2, kernel_size=(1, 1, 1), stride=(1, 1, 1), groups=2)
          )
          (p2_2): Conv2p5D(
            (pointwise): Conv3d(2, 4, kernel_size=(1, 1, 1), stride=(1, 1, 1))
            (depthwise_spatial): Conv3d(4, 4, kernel_size=(1, 3, 3), stride=(1, 1, 1), padding=(0, 1, 1), groups=4)
            (depthwise_temporal): Conv3d(4, 4, kernel_size=(3, 1, 1), stride=(1, 1, 1), padding=(1, 0, 0), groups=4)
          )
          (p3_1): Conv2p5D(
            (pointwise): Conv3d(16, 2, kernel_size=(1, 1, 1), stride=(1, 1, 1))
            (depthwise_spatial): Conv3d(2, 2, kernel_size=(1, 1, 1), stride=(1, 1, 1), groups=2)
            (depthwise_temporal): Conv3d(2, 2, kernel_size=(1, 1, 1), stride=(1, 1, 1), groups=2)
          )
          (p3_2): Conv2p5D(
            (pointwise): Conv3d(2, 4, kernel_size=(1, 1, 1), stride=(1, 1, 1))
            (depthwise_spatial): Conv3d(4, 4, kernel_size=(1, 5, 5), stride=(1, 1, 1), padding=(0, 2, 2), groups=4)
            (depthwise_temporal): Conv3d(4, 4, kernel_size=(5, 1, 1), stride=(1, 1, 1), padding=(2, 0, 0), groups=4)
          )
          (p4_1): MaxPool3d(kernel_size=3, stride=1, padding=1, dilation=1, ceil_mode=False)
          (p4_2): Conv2p5D(
            (pointwise): Conv3d(16, 4, kernel_size=(1, 1, 1), stride=(1, 1, 1))
            (depthwise_spatial): Conv3d(4, 4, kernel_size=(1, 1, 1), stride=(1, 1, 1), groups=4)
            (depthwise_temporal): Conv3d(4, 4, kernel_size=(1, 1, 1), stride=(1, 1, 1), groups=4)
          )
        )
        (norm1): InstanceNorm3d(16, eps=1e-05, momentum=0.1, affine=False, track_running_stats=False)
        (act): LeakyReLU(negative_slope=0.01, inplace=True)
        (inception2): Convolution(
          (conv): Conv3d(16, 16, kernel_size=(3, 3, 3), stride=(1, 1, 1), padding=(1, 1, 1), bias=False)
        )
        (norm2): InstanceNorm3d(16, eps=1e-05, momentum=0.1, affine=False, track_running_stats=False)
      )
    )
  )
  (out1): UnetOutBlock(
    (conv): Convolution(
      (conv): Conv3d(16, 14, kernel_size=(1, 1, 1), stride=(1, 1, 1))
    )
  )
  (out2): UnetOutBlock(
    (conv): Convolution(
      (conv): Conv3d(32, 14, kernel_size=(1, 1, 1), stride=(1, 1, 1))
    )
  )
  (out3): UnetOutBlock(
    (conv): Convolution(
      (conv): Conv3d(64, 14, kernel_size=(1, 1, 1), stride=(1, 1, 1))
    )
  )
  (moe): MoE(
    (experts): ModuleList(
      (0-3): 4 x CapsuleExpert(
        (conv_capsules): ModuleList(
          (0-15): 16 x Conv2d(256, 16, kernel_size=(3, 3), stride=(1, 1), padding=(1, 1))
        )
        (output_proj): Conv2d(256, 256, kernel_size=(1, 1), stride=(1, 1))
      )
    )
    (gap): AdaptiveAvgPool2d(output_size=(1, 1))
  )
  (conv3_t3): Conv3d(128, 64, kernel_size=(1, 1, 1), stride=(1, 1, 1))
  (conv1d_t4): Conv1d(256, 64, kernel_size=(1,), stride=(1,))
  (fc_t4): Linear(in_features=50, out_features=25600, bias=True)
  (docker1): Docker(
    (initial_proj): Sequential(
      (0): Conv2d(256, 32, kernel_size=(1, 1), stride=(1, 1))
      (1): BatchNorm2d(32, eps=1e-05, momentum=0.1, affine=True, track_running_stats=True)
      (2): ReLU(inplace=True)
    )
    (multi_scale): ModuleList(
      (0): Conv2d(32, 32, kernel_size=(1, 1), stride=(1, 1))
      (1): Conv2d(32, 32, kernel_size=(3, 3), stride=(1, 1), padding=(1, 1))
      (2): Conv2d(32, 32, kernel_size=(5, 5), stride=(1, 1), padding=(2, 2))
    )
    (fuse): Sequential(
      (0): Conv3d(64, 32, kernel_size=(1, 1, 1), stride=(1, 1, 1))
      (1): BatchNorm3d(32, eps=1e-05, momentum=0.1, affine=True, track_running_stats=True)
      (2): ReLU(inplace=True)
    )
  )
  (docker2): Docker(
    (initial_proj): Sequential(
      (0): Conv2d(256, 64, kernel_size=(1, 1), stride=(1, 1))
      (1): BatchNorm2d(64, eps=1e-05, momentum=0.1, affine=True, track_running_stats=True)
      (2): ReLU(inplace=True)
    )
    (multi_scale): ModuleList(
      (0): Conv2d(64, 64, kernel_size=(1, 1), stride=(1, 1))
      (1): Conv2d(64, 64, kernel_size=(3, 3), stride=(1, 1), padding=(1, 1))
      (2): Conv2d(64, 64, kernel_size=(5, 5), stride=(1, 1), padding=(2, 2))
    )
    (fuse): Sequential(
      (0): Conv3d(128, 64, kernel_size=(1, 1, 1), stride=(1, 1, 1))
      (1): BatchNorm3d(64, eps=1e-05, momentum=0.1, affine=True, track_running_stats=True)
      (2): ReLU(inplace=True)
    )
  )
  (docker3): Docker(
    (initial_proj): Sequential(
      (0): Conv2d(256, 128, kernel_size=(1, 1), stride=(1, 1))
      (1): BatchNorm2d(128, eps=1e-05, momentum=0.1, affine=True, track_running_stats=True)
      (2): ReLU(inplace=True)
    )
    (multi_scale): ModuleList(
      (0): Conv2d(128, 128, kernel_size=(1, 1), stride=(1, 1))
      (1): Conv2d(128, 128, kernel_size=(3, 3), stride=(1, 1), padding=(1, 1))
      (2): Conv2d(128, 128, kernel_size=(5, 5), stride=(1, 1), padding=(2, 2))
    )
    (fuse): Sequential(
      (0): Conv3d(256, 128, kernel_size=(1, 1, 1), stride=(1, 1, 1))
      (1): BatchNorm3d(128, eps=1e-05, momentum=0.1, affine=True, track_running_stats=True)
      (2): ReLU(inplace=True)
    )
  )
  (docker4): Docker(
    (initial_proj): Sequential(
      (0): Conv2d(256, 256, kernel_size=(1, 1), stride=(1, 1))
      (1): BatchNorm2d(256, eps=1e-05, momentum=0.1, affine=True, track_running_stats=True)
      (2): ReLU(inplace=True)
    )
    (multi_scale): ModuleList(
      (0): Conv2d(256, 256, kernel_size=(1, 1), stride=(1, 1))
      (1): Conv2d(256, 256, kernel_size=(3, 3), stride=(1, 1), padding=(1, 1))
      (2): Conv2d(256, 256, kernel_size=(5, 5), stride=(1, 1), padding=(2, 2))
    )
    (fuse): Sequential(
      (0): Conv3d(512, 256, kernel_size=(1, 1, 1), stride=(1, 1, 1))
      (1): BatchNorm3d(256, eps=1e-05, momentum=0.1, affine=True, track_running_stats=True)
      (2): ReLU(inplace=True)
    )
  )
  (conv3d_t1): Conv3d(32, 64, kernel_size=(1, 1, 1), stride=(1, 1, 1))
  (conv3d_t2): Conv3d(64, 64, kernel_size=(1, 1, 1), stride=(1, 1, 1))
  (conv1d_y4): Conv1d(256, 64, kernel_size=(1,), stride=(1,))
) 
2025-12-04 21:16:38.937246: 
 
2025-12-04 21:16:38.950495: 
epoch:  0 
